artifacts/base_model.pth (torch, 186119 bytes, 10 tensors)

weight f4 [8, 1, 5, 5]
0	0x3d91b68e	0.07114898
1	0x3dd35112	0.10318197
2	0xbd705a68	-0.058679968
3	0xbdf59c33	-0.11992683
4	0xbc583120	-0.013195306
5	0x3c4351b0	0.011921331
6	0x3d04cc60	0.03242147
7	0xbdc7e180	-0.097598076
8	0x3da73162	0.08163716
9	0xbd735ea0	-0.059416413
10	0x3e29cd8f	0.1658232
11	0xbe10f30a	-0.14155212
12	0xbc41c6b0	-0.011827156
13	0x3de9332a	0.11386712
14	0xbe0081a2	-0.12549451
15	0xbe449d35	-0.19200595
16	0xbe4965f0	-0.19667792
17	0xbdb5e05a	-0.08880682
18	0x3c8faa30	0.017537206
19	0xbe3b9d8b	-0.18321817
20	0xbde8de23	-0.11370494
21	0x3dd1a162	0.102358595
22	0x3dc36462	0.09540631
23	0xbe0a80da	-0.13525715
24	0x3d69056c	0.056889936
25	0xbde358f7	-0.11100953
26	0xbe48aacf	-0.19596408
27	0x3d8c18f2	0.068406954
28	0x3d532814	0.051551893
29	0xbdb9b027	-0.090668015
30	0xbe09e9b6	-0.1346806
31	0xbe08d79e	-0.13363501
32	0x3e35b663	0.17745356
33	0xbdcb2be7	-0.09920483
34	0x3e4a9c29	0.19786133
35	0x3e0712b3	0.13190727
36	0x3d2d97ac	0.042380974
37	0x3e036729	0.12832321
38	0x3e1e36cb	0.1545059
39	0xbe1f656a	-0.1556603
40	0x3e3683f5	0.17823775
41	0xbe46c6d2	-0.19411781
42	0x3e47e6db	0.19521658
43	0xbe28fbfe	-0.16502377
44	0xbdd655e3	-0.104656
45	0x3e43edaf	0.19133638
46	0xbda2b7f0	-0.079452395
47	0x3d476bb8	0.048686713
48	0x3dd79f86	0.105284736
49	0xbd1bf0b8	-0.038071364
50	0x3e2974f9	0.16548528
51	0x3e3df863	0.18551783
52	0xbe27c87b	-0.16385071
53	0xbd868eda	-0.065702155
54	0x3dea3a52	0.11436905
55	0xbe24dc18	-0.16099584
56	0xbdd3e023	-0.10345485
57	0xbdce5ba7	-0.10076075
58	0xbe022584	-0.12709624
59	0x3e31cf5f	0.17364262
60	0x3dc6ba52	0.097035065
61	0xbd422928	-0.04740253
62	0x3dac82d6	0.084233925
63	0x3d85e26e	0.06537329
64	0x3e16477f	0.14675711
65	0xbd88c000	-0.06677246
66	0xbe40aa9b	-0.18815081
67	0xbe331a6f	-0.17490552
68	0x3e1f16e1	0.15536071
69	0x3e378b57	0.17924248
70	0xbcf79d80	-0.030226469
71	0xbc9b7868	-0.018978313
72	0x3d31f0a0	0.04344237
73	0x3dfc1802	0.123092666
74	0xbe1425c8	-0.14467537
75	0xbc1d1730	-0.009588048
76	0x3d1a77a0	0.03771174
77	0x3e3cb1e3	0.18427233
78	0x3dcd05ea	0.10010894
79	0x3ca3a710	0.019977123
80	0x3c661ce0	0.01404497
81	0xbe1f8b3b	-0.15580456
82	0xbdf77c67	-0.12084275
83	0xbde6aefd	-0.11263845
84	0x3d136648	0.035986215
85	0xbe4b27e5	-0.19839437
86	0xbcd54170	-0.02603218
87	0x3e3b13ad	0.18269224
88	0xbde36047	-0.11102348
89	0x3e32e23d	0.17469116
90	0xbe480f0b	-0.19536988
91	0x3e1b18f9	0.15146245
92	0x3e358627	0.17726956
93	0x3e42637b	0.18983261
94	0x3d82fac6	0.063954875
95	0x3e2c2af5	0.16813262
96	0xbb277ac0	-0.0025555342
97	0x3dfe0632	0.124035254
98	0xbd966934	-0.07344285
99	0xbe1b86b0	-0.15188098
100	0xbd7908d8	-0.06079945
101	0xbe17c275	-0.14820273
102	0xbe03b79e	-0.12863013
103	0xbcd9f468	-0.0266058
104	0xbe243d9e	-0.1603913
105	0x3e013489	0.12617697
106	0xbe172af6	-0.14762482
107	0x3e1f55c9	0.15560068
108	0x3e1d2bcb	0.15348737
109	0xbe44c76f	-0.19216703
110	0xbc7d0ca0	-0.015444905
111	0x3e33b935	0.1755112
112	0xbd6b0e78	-0.057386845
113	0xbdbcb4a0	-0.09214139
114	0xbd67e9e0	-0.056619525
115	0x3cf8bf80	0.030364752
116	0xbe233d32	-0.15941313
117	0x3d743b1c	0.059626684
118	0xbd1aca2c	-0.037790462
119	0x3d9d92c6	0.076940104
120	0x3dc7e61a	0.09760685
121	0xbe1d3ac5	-0.1535445
122	0x3cdebf80	0.027190924
123	0x3d95ceb2	0.073148146
124	0x3dc666fe	0.09687613
125	0xbd8025fc	-0.06257245
126	0xbda7627a	-0.0817308
127	0x3e0bc441	0.13649084
128	0x3d45cf0c	0.04829316
129	0x3dac5b4a	0.084158495
130	0x3e4c05d9	0.19924106
131	0x3d25e878	0.040504903
132	0xbcdcb6d0	-0.02694264
133	0xbd47c488	-0.04877141
134	0x3dde635a	0.108587936
135	0xbdd1b8cd	-0.10240326
136	0xbe12c298	-0.14332044
137	0xbca00218	-0.019532248
138	0xbe2abeb2	-0.16674307
139	0x3d00e854	0.031471565
140	0x3e29178d	0.1651289
141	0xbd4c3e88	-0.049864322
142	0xbd9b6dbd	-0.0758929
143	0xbdc7903d	-0.09744308
144	0xbcc01b90	-0.023450643
145	0x3e3b4223	0.18286948
146	0x3c454da0	0.012042433
147	0x3e1d228d	0.15345211
148	0xbdd88443	-0.10572102
149	0x3dd6704e	0.10470639
150	0xbe177bc8	-0.14793313
151	0xbd66930c	-0.05629258
152	0xbe1f0492	-0.15529087
153	0x3d741784	0.05959274
154	0x3d98d062	0.07461621
155	0x3c935ff0	0.017990083
156	0x3e0643e7	0.1311184
157	0xbdf0f007	-0.117645316
158	0x3e30ae69	0.17254032
159	0x3d9d455a	0.076792434
160	0x3d9fa75a	0.07795592
161	0xbcb0da10	-0.021588355
162	0x3c7bbd50	0.01536496
163	0xbc75d260	-0.015003771
164	0x3da37ce2	0.07982804
165	0x3d723cac	0.059139892
166	0xbd2ce278	-0.042208165
167	0x3e1c4159	0.15259303
168	0xbe076ab5	-0.13224299
169	0xbcfda628	-0.030963019
170	0xbd81bcf0	-0.06334865
171	0xbda5be27	-0.08092909
172	0x3d9569a6	0.072955415
173	0xbe2d9052	-0.16949585
174	0x3d4a6e0c	0.049421355
175	0x3d971cc2	0.07378532
176	0xbd3bf3cc	-0.0458868
177	0xbe0ff8bb	-0.14059727
178	0x3e098ec7	0.13433371
179	0x3d35fc2c	0.044429943
180	0x3e0374d7	0.1283754
181	0x3da59506	0.080850646
182	0x3dfbea42	0.123005405
183	0xbdb0e80d	-0.0863801
184	0xbe1dcfc5	-0.15411289
185	0xbacb5580	-0.0015513152
186	0x3e13bd41	0.14427663
187	0x3e078921	0.13235904
188	0x3e2ff879	0.17184629
189	0xbe2591b3	-0.16168861
190	0x3e073d97	0.13207088
191	0x3c81aec0	0.015830398
192	0xbe29139b	-0.16511385
193	0x3e464775	0.19363196
194	0xbdf4bb8a	-0.11949833
195	0x3e36fca9	0.1786982
196	0x3d3035a8	0.04301992
197	0xbe3d04a5	-0.18458803
198	0x3e46fc31	0.19432141
199	0xbc050630	-0.008119151

bias f4 [8]
0	0xbcfa5830	-0.03055963
1	0xbe1d4f52	-0.1536229
2	0xbe49872a	-0.19680467
3	0x3db63dd2	0.0889851
4	0x3e2a51f5	0.16632827
5	0x3d6d45a4	0.057927743
6	0xbd1efb58	-0.03881392
7	0xbd668db4	-0.056287482

weight f4 [16, 8, 5, 5]
0	0xbd20e633	-0.039282035
1	0x3d68388a	0.056694545
2	0x3c706908	0.014673479
3	0x3d8eaa47	0.069660716
4	0xbce783c0	-0.028261065
5	0xbd8aece5	-0.06783465
6	0xbd6eb4e1	-0.05827797
7	0xbc1d2e70	-0.009593591
8	0xbc46fba0	-0.012144953
9	0xbcc41baa	-0.023938973
10	0x3cdb9544	0.026804574
11	0xbd899118	-0.067171276
12	0xbd8579aa	-0.06517346
13	0x3ba552a0	0.00504525
14	0x3d3b0cb0	0.045666397
15	0x3d2a3680	0.04155588
16	0xbb8df0e0	-0.004331693
17	0xbc79cf58	-0.0152471885
18	0x3d3f9ce4	0.046780482
19	0xbd6d13a4	-0.05788006
20	0xbc07c4d0	-0.00828667
21	0x3d77ae2e	0.060468845
22	0x3d42e9fc	0.047586426
23	0xbd5b20b6	-0.053497992
24	0x3d5654c6	0.05232694
25	0xbafb0a00	-0.001915276
26	0xbd4a7f66	-0.049437903
27	0xbd810fd2	-0.063018456
28	0xbd8f8d3c	-0.0700936
29	0xbd43b83f	-0.047783133
30	0xbc79e8b0	-0.015253231
31	0x3d73ee9a	0.05955372
32	0x3ac327c0	0.0014889166
33	0x3c1820f0	0.009285197
34	0x3d31c90a	0.043404616
35	0xbcafc194	-0.02145461
36	0xbd80a64e	-0.0628172
37	0xbc9e3132	-0.019310568
38	0x3bdfbba0	0.0068277866
39	0xbd66bb05	-0.0563307
40	0xbd8beaaa	-0.06831868
41	0x3d3253fa	0.043537118
42	0xbd51623e	-0.05111908
43	0xbd2bf9f0	-0.041986406
44	0xbd889aa1	-0.06670118
45	0x3d8fdf3d	0.07025001
46	0xbd0e8001	-0.034790043
47	0x3d89d765	0.06730536
48	0x3d8b8887	0.0681315
49	0xbd2d61f4	-0.042329744
50	0xbc0518d0	-0.008123592
51	0x3d8b9361	0.0681522
52	0xbd0de0e1	-0.03463829
53	0x3d225c1c	0.039638624
54	0x3d6bd922	0.05758012
55	0xbc7db0f0	-0.01548408
56	0xbd5a083f	-0.05323052
57	0xbd08ebd7	-0.03342804
58	0x3ad19b40	0.0015991703
59	0x3d7cebaa	0.061748184
60	0x3cd11740	0.025523782
61	0xbd77b702	-0.060477264
62	0x3b2e67e0	0.0026612207
63	0xb9caa200	-0.00038649142
64	0x3d8042a5	0.062627114
65	0xbd16ec34	-0.036846355
66	0x3d505bac	0.050868675
67	0xbd346fb8	-0.044051856
68	0xbc76e2a8	-0.0150686875
69	0xbd0d9e59	-0.03457484
70	0xbd4c8362	-0.049929984
71	0xbd699a3c	-0.057031855
72	0xbb134e00	-0.0022476912
73	0x3d000044	0.031250253
74	0x3cb52968	0.02211447
75	0x3c41b418	0.011822723
76	0x3c4aa788	0.012369044
77	0x3c7f3330	0.015576169
78	0xbd48137a	-0.0488467
79	0xbcf439c0	-0.029812694
80	0xbd771a11	-0.060327593
81	0x3cbea488	0.023271814
82	0x3cf1b968	0.029507354
83	0xbd620b2c	-0.055186436
84	0x3d48b022	0.0489961
85	0x3c1e0ed8	0.009647094
86	0xbcef21b8	-0.029190883
87	0x3cea55ac	0.028605305
88	0x3d1deaac	0.03855388
89	0xbcd167a8	-0.025562122
90	0x3d3448d6	0.044014774
91	0xbd8f8944	-0.07008603
92	0xbd7dcf4b	-0.061965268
93	0xbc9e0222	-0.019288126
94	0xbd062db6	-0.032758437
95	0xbd2da6d8	-0.042395443
96	0xbd12ae4a	-0.035810746
97	0xbd5c22cc	-0.053744122
98	0x3d8b0617	0.06788271
99	0x3ca1bcc4	0.01974333
100	0xbc94ec90	-0.018179208
101	0x3d89719b	0.06711122
102	0x3cf8b3e0	0.030359209
103	0x3d50cb20	0.050974965
104	0x3d1d76d6	0.03844341
105	0x3cb51aa4	0.02210743
106	0x3d8749f3	0.066059016
107	0xbd3ad4e8	-0.0456132
108	0xbc5e35b8	-0.013562612
109	0xbd431783	-0.047629844
110	0x3aeecec0	0.0018219575
111	0xbc64d80c	-0.013967525
112	0x3d605c42	0.054775484
113	0x3bd3eb70	0.0064672753
114	0x3d86caf1	0.06581677
115	0x3b4b87e0	0.003105633
116	0x3ca76eb8	0.020438537
117	0xbb4ce440	-0.0031263977
118	0x3cd85860	0.026409328
119	0x3d66d386	0.05635407
120	0xbc755308	-0.0149734095
121	0xbd847517	-0.064676456
122	0xbd2f4266	-0.04278793
123	0x3caec0dc	0.021332197
124	0x3d0127c8	0.03153208
125	0xbd7ea001	-0.06216431
126	0x3c54ce30	0.012988612
127	0xba79a780	-0.00095235556
128	0xbd7c9956	-0.06166967
129	0x3d81e7cb	0.06343039
130	0xbd4243e9	-0.047428045
131	0x3d60f146	0.054917596
132	0xbc0eaaa0	-0.008707672
133	0xbd3758a5	-0.044762272
134	0x3d5132a2	0.051073678
135	0xbd60a488	-0.05484441
136	0xbc90a2c0	-0.01765573
137	0xbd3b02d1	-0.045656983
138	0xbd36b2f8	-0.04460427
139	0xbd2122ab	-0.039339703
140	0x3d06265e	0.032751434
141	0x3a554780	0.00081359595
142	0x3d4af0d4	0.049546078
143	0x3d24652a	0.04013554
144	0xbd8b56d7	-0.06803673
145	0x3d4b1d88	0.04958871
146	0xbcfd81ca	-0.030945677
147	0x3d84ba37	0.0648083
148	0xbd616bab	-0.05503432
149	0x3c941fa4	0.018081494
150	0x3c01dd28	0.007926263
151	0xbc1e902c	-0.009677928
152	0x3cad3c70	0.021146983
153	0xbd86883a	-0.06568952
154	0xbc951c9e	-0.018202122
155	0x3d6dc846	0.058052324
156	0xbcf17a52	-0.029477272
157	0x3d4ad822	0.049522527
158	0x3d1cdb70	0.03829521
159	0x3d043cd8	0.032284588
160	0xbb858bb0	-0.00407549
161	0x3d4c58e4	0.04988946
162	0x3cb906b0	0.022586197
163	0xbd30fc42	-0.04320932
164	0x3d6b4e72	0.05744786
165	0x3a1b4780	0.0005923435
166	0x3d7867de	0.06064593
167	0xbce53efc	-0.027984135
168	0xbcefa85e	-0.029255088
169	0xbd52a5b0	-0.051427543
170	0x3c7a1f80	0.015266299
171	0x3d64966e	0.055807523
172	0x3d8d1dcd	0.0689045
173	0xbd73c946	-0.05951812
174	0xbc96449c	-0.018343262
175	0x3d2a9132	0.041642375
176	0x3c20d5f8	0.009816639
177	0x3d8af66f	0.06785285
178	0xbd45fb2a	-0.04833523
179	0x3c580128	0.013183869
180	0xbd26f678	-0.040762395
181	0xbaa477c0	-0.0012547895
182	0x3d88251d	0.06647704
183	0xbd4728f4	-0.04862304
184	0xbcd93464	-0.02651424
185	0x3d1813b0	0.03712815
186	0x3cd858b8	0.026409492
187	0xbd84c541	-0.06482936
188	0x3d79b6ee	0.06096547
189	0xbd5bae48	-0.053633004
190	0x3c702a50	0.014658526
191	0x3c469d48	0.01212246
192	0x3d225052	0.03962738
193	0x3ca5ca28	0.020237997
194	0xbd5aec80	-0.0534482
195	0xbd22bf5c	-0.039733276
196	0x3d33cabe	0.043894522
197	0xbbb32ba0	-0.005467847
198	0xbc071928	-0.008245744
199	0xbb7a9920	-0.0038238242
200	0x3c88b118	0.016686007
201	0x3d8c9083	0.06863501
202	0x3d0f1cac	0.034939453
203	0x3be2d790	0.0069226697
204	0xbbbeb370	-0.0058197305
205	0x3ce27d80	0.027647734
206	0x3d2fe278	0.042940587
207	0x3d809bb9	0.06279702
208	0xbcf1f956	-0.029537838
209	0xbd21cf58	-0.03950438
210	0xbd782235	-0.060579497
211	0xbd1718be	-0.03688883
212	0x3d26f9c6	0.040765546
213	0x3cc68f40	0.024238229
214	0xbcf091d2	-0.029366408
215	0xbd438d3e	-0.04774212
216	0xbd4667a9	-0.0484387
217	0xbcfbdba4	-0.030744381
218	0xbd449b1c	-0.047999486
219	0xbd8d804d	-0.06909237
220	0x3d1ca11c	0.038239583
221	0xbbf04fc0	-0.0073337257
222	0x3d4e2356	0.050326668
223	0xbd2790bc	-0.040909514
224	0xbd692246	-0.05691745
225	0xbd69a6e6	-0.057043932
226	0xbd2061a3	-0.039155614
227	0xbc8a7442	-0.01690114
228	0x3bce58a0	0.006297186
229	0xbd798d5e	-0.060925834
230	0x3d4f1d36	0.050564967
231	0xbd6a4bfb	-0.057201367
232	0xbd5af040	-0.053451777
233	0xbc050ef0	-0.008121237
234	0x3d0c3432	0.034229465
235	0x3d215d96	0.03939589
236	0x3d84e54f	0.0648905
237	0xbcb448a6	-0.022007298
238	0xbd2fbee8	-0.04290667
239	0x3a28f300	0.0006444901
240	0x3bf9b640	0.007620603
241	0x3d537b0a	0.05163101
242	0xba05c080	-0.0005102232
243	0x3c8ffd00	0.017576694
244	0x3d5da1ae	0.054109268
245	0x3cdf67d8	0.027271196
246	0x3c6deed8	0.014522277
247	0x3cb35fe8	0.021896318
248	0xbd325a3e	-0.043543093
249	0x3c98fda4	0.018675633
250	0x3d57a236	0.05264493
251	0x3b7839c0	0.0037876219
252	0x3bbd2ac0	0.0057729185
253	0xbd90c660	-0.07069087
254	0xbd1dc2b5	-0.038515765
255	0x3d51fa5e	0.05126416

bias f4 [16]
0	0x3c1f3e58	0.009719454
1	0xbd2e9e72	-0.042631574
2	0x3d4f84d2	0.050663777
3	0xbcc9b3ca	-0.024621863
4	0xbd021267	-0.03175583
5	0x3d82c7c3	0.06385758
6	0xbd039b2c	-0.032130405
7	0x3ce73b84	0.028226621
8	0x3d55f924	0.052239552
9	0xbce0e546	-0.027453076
10	0x3c8a9668	0.016917422
11	0x3cd0eda4	0.02550394
12	0xbd41fe7d	-0.04736184
13	0xbba08880	-0.0048990846
14	0x3d014fba	0.031570174
15	0x3d17aac0	0.037028074

weight f4 [128, 256]
0	0x3cb112e4	0.021615453
1	0xba44e400	-0.0007510781
2	0x3d5e2454	0.054233864
3	0x3ca337b4	0.019924022
4	0x3d2f5ab2	0.042811103
5	0xbd17309e	-0.0369116
6	0x3d66ce18	0.05634889
7	0x3c219188	0.0098613575
8	0x3c92fa10	0.017941505
9	0x393de400	0.00018109381
10	0xbcb09078	-0.021553263
11	0x3cdfcdd8	0.027319834
12	0xbd54ea62	-0.051981337
13	0x3c8b41f0	0.016999215
14	0xbd588a2e	-0.052866153
15	0xbd577a8c	-0.052607104
16	0xbd395902	-0.0452509
17	0x38b1b400	8.473545e-05
18	0xbb8241e0	-0.003975138
19	0xbd7224ea	-0.059117235
20	0xbc462310	-0.0120933205
21	0xbc7f5968	-0.015585281
22	0xbd6c3abc	-0.0576732
23	0x39ed9900	0.00045318156
24	0xbb125760	-0.0022329912
25	0x3d12bcbe	0.03582453
26	0xbcdddf2c	-0.027083956
27	0xbd5dc932	-0.054146953
28	0x3ce8388c	0.028347276
29	0xbd2b4c82	-0.04182101
30	0xbd03d9dc	-0.03219019
31	0xbbac3720	-0.005255595
32	0xbc8789f0	-0.016545266
33	0xbd446fec	-0.0479583
34	0x3d6d1e6e	0.057890348
35	0x3d749da4	0.05972065
36	0x3ab69e80	0.0013932735
37	0xbc0223d8	-0.007943116
38	0x3a19e300	0.00058703125
39	0x3d343e90	0.044004977
40	0xbc9205dc	-0.01782506
41	0x3d0bb63a	0.03410933
42	0x3d6e0e8e	0.05811935
43	0x3c946838	0.018116102
44	0x3d574ab6	0.052561484
45	0x3b58ac80	0.0033061802
46	0xbcab7950	-0.02093187
47	0x3d467280	0.04844904
48	0x3ced9344	0.029000886
49	0xbd337926	-0.043816708
50	0x3ced002c	0.028930746
51	0xbcf56b94	-0.029958524
52	0xbd32417e	-0.04351949
53	0xbd4ce762	-0.05002535
54	0x3d683e5e	0.056700103
55	0xbc3189a0	-0.010836035
56	0x3d6f542c	0.058429882
57	0x3c4ec250	0.01261957
58	0xbc20d1f0	-0.009815678
59	0xbd29edd0	-0.04148656
60	0xbd21862e	-0.039434604
61	0xbb7e0fe0	-0.0038766786
62	0x3c80adb4	0.015707828
63	0xbd725600	-0.059164047
64	0x3cc016cc	0.02344837
65	0xbd6b646c	-0.057468817
66	0xbc88ee5c	-0.016715221
67	0xbcfa8a54	-0.030583538
68	0xbc3dccd8	-0.011584483
69	0xbcab3f7c	-0.020904295
70	0xbd1a1d56	-0.037625633
71	0xbc96c1e8	-0.018403009
72	0x3c8dfc20	0.017332137
73	0xbbde2180	-0.006778896
74	0x3d571e9a	0.05251942
75	0xbd17ba54	-0.03704293
76	0xbb9e24a0	-0.0048261434
77	0xbd0b4f82	-0.03401137
78	0xbd3df95e	-0.046380393
79	0x3d1de7b6	0.038551055
80	0xbd18df40	-0.037322283
81	0x3a518400	0.0007992387
82	0x3d0de0f8	0.034638375
83	0xbd1abc6c	-0.03777735
84	0xbd7b187e	-0.061302654
85	0xbbc8fa20	-0.006133333
86	0xbd663018	-0.05619821
87	0xbd654c28	-0.05598083
88	0xbd4c5c76	-0.049892865
89	0x3d428686	0.047491573
90	0x3d42fe60	0.047605872
91	0x3cc20558	0.023684189
92	0xbc72cdd0	-0.014819577
93	0xbd570280	-0.05249262
94	0xbd2a5112	-0.04158122
95	0x3c21bc28	0.00987152
96	0x3c96be38	0.01840125
97	0x3d25bc2c	0.040462658
98	0x3c7de9d8	0.015497647
99	0x3c1f75d8	0.009732686
100	0xbced897c	-0.028996222
101	0xbd7f62c2	-0.062350042
102	0x3d725ff6	0.059173547
103	0xbd3593c2	-0.044330366
104	0x3c893f20	0.016753733
105	0xbcd0e138	-0.025498018
106	0x3b9610d0	0.004579641
107	0x3cc91160	0.024544418
108	0xbc3eaff8	-0.011638634
109	0xbb932df0	-0.00449156
110	0x3d0dee9e	0.03465139
111	0x3b20b4e0	0.0024521872
112	0x3d41111a	0.04713545
113	0xbc93fa80	-0.018063784
114	0xbc0e4ae0	-0.008684844
115	0x3d4d4858	0.05011782
116	0x3d014906	0.03156378
117	0x3c0ba770	0.008523807
118	0x3bdb26e0	0.006687984
119	0x3ccdea2c	0.025136076
120	0xbd4d35de	-0.0501002
121	0xbbc5f2f0	-0.0060409233
122	0xbce052a0	-0.027383149
123	0xbd7f3158	-0.062302917
124	0x3d483c0c	0.04888539
125	0x3d3d0fde	0.04615771
126	0x3d6d0c16	0.057872854
127	0xbd374d56	-0.044751488
128	0x3cf20d20	0.029547274
129	0xbbfbf5d0	-0.0076892152
130	0xbc8acee8	-0.016944364
131	0xbc102898	-0.008798741
132	0xbd7f98a2	-0.06240142
133	0x3ce3989c	0.02778273
134	0xbcec10a8	-0.028816536
135	0xbcea6034	-0.028610326
136	0x3d78f59a	0.0607811
137	0xbb92e820	-0.004483238
138	0xbd3d2586	-0.046178363
139	0xbc19de48	-0.009391375
140	0x3d530286	0.05151608
141	0x3c92872c	0.01788672
142	0x3b544f20	0.0032395795
143	0x3cf04c1c	0.029333167
144	0x3d153394	0.03642614
145	0xbcd418b0	-0.025890678
146	0x3d58ebca	0.05295924
147	0x3d56eb6c	0.05247061
148	0x3d7fab90	0.062419474
149	0xbc6ed0e8	-0.014576174
150	0xbb1e0f40	-0.0024117976
151	0x3bc758b0	0.0060835704
152	0xbd470f38	-0.048598498
153	0x3d533be4	0.051570788
154	0x3c907c80	0.017637491
155	0x3d3f11c8	0.046647817
156	0x3d00a1c0	0.031404257
157	0x3c5940e0	0.013260096
158	0xbcd89788	-0.026439443
159	0xb8eae400	-0.00011200458
160	0x3d5d620c	0.054048583
161	0x3d0dbd26	0.034604214
162	0xbc989178	-0.018624052
163	0xbcc6d840	-0.024273038
164	0xbd5b4d74	-0.053540662
165	0xbd0284ea	-0.031865038
166	0xbb9264d0	-0.004467584
167	0xbd02cf66	-0.03193607
168	0xbd5ed0ae	-0.05439823
169	0xbd218ba4	-0.039439812
170	0xbb94e180	-0.0045434833
171	0xbc393598	-0.011304282
172	0x3d288c96	0.0411497
173	0x3cff560c	0.03116896
174	0x3bbc00e0	0.005737409
175	0xbd54bf6a	-0.05194036
176	0x3bad7930	0.0052939877
177	0xbd626200	-0.05526924
178	0x3d169db0	0.036771476
179	0xbbfec7d0	-0.0077752843
180	0x3cb8e718	0.022571132
181	0xbd30e546	-0.043187402
182	0x3c78a5b0	0.015176222
183	0x3d3d0ec2	0.046156652
184	0x3d6b9dfc	0.057523713
185	0xbcf1ad40	-0.029501557
186	0xbce8c8d0	-0.028416067
187	0x3b374960	0.002796732
188	0x3cce0500	0.025148869
189	0xbd4c464e	-0.049871735
190	0x3d2d87d8	0.04236588
191	0x3cd573fc	0.026056282
192	0x3d07d1ac	0.033158943
193	0x3c69fa48	0.014280863
194	0x3cfbcc48	0.030737057
195	0x3cff40d8	0.03115885
196	0xbc5fb240	-0.013653338
197	0x3d51ef82	0.051253803
198	0xbb8cf740	-0.0043019354
199	0x3cc6d844	0.024273045
200	0xbd128d3c	-0.035779223
201	0x3d5e7f16	0.054320417
202	0x3c87f878	0.016597971
203	0xbd231126	-0.039811276
204	0x3ce2a534	0.027666666
205	0xbd5aaf78	-0.053389996
206	0x3cb8bd3c	0.022551171
207	0xbc9739a0	-0.018460095
208	0xbd4210a8	-0.047379166
209	0xbcc4f574	-0.024042822
210	0xbd61e726	-0.05515208
211	0xbc933a50	-0.017972142
212	0x3c5ff128	0.013668336
213	0x3c0ca280	0.008583665
214	0x3d2e831a	0.042605497
215	0xbd1e5dd8	-0.038663715
216	0xbd0c0f98	-0.03419456
217	0xbd5b6ae0	-0.05356872
218	0x3cdfce0c	0.02731993
219	0x3ccaeea4	0.024771996
220	0xbd5138d4	-0.051079586
221	0xbd0ca21e	-0.034334294
222	0xbd351cae	-0.044216804
223	0xbb8616f0	-0.00409209
224	0xbd26d958	-0.04073462
225	0x3d5592e0	0.052142024
226	0xbd4aea4a	-0.04953984
227	0xbd255730	-0.04036635
228	0x3d7a2f1c	0.061080083
229	0x3c6a3e20	0.014297038
230	0xbd097c46	-0.033565782
231	0x3ce0bdf0	0.02743432
232	0x3c65f678	0.0140358135
233	0xbd0c614c	-0.034272477
234	0xbcf5b414	-0.029993095
235	0x3ccd4cb4	0.025060989
236	0xbd6d5a9e	-0.057947747
237	0xbc611480	-0.013737798
238	0xbcae26d8	-0.021258757
239	0xbcf69dcc	-0.03010454
240	0x3d6c8516	0.05774411
241	0xbd284e5c	-0.041090354
242	0xbd1f51e0	-0.03889644
243	0x3c317918	0.010832094
244	0xbd4d14d4	-0.05006869
245	0xbbdd49f0	-0.006753199
246	0xbc2b9cc8	-0.010474391
247	0xbd382246	-0.04495456
248	0x3d7ee81e	0.062233083
249	0x3c8e5214	0.017373122
250	0x3d6e897e	0.05823659
251	0x3c9edd58	0.019392654
252	0x3d300050	0.042969048
253	0xbaf99540	-0.0019041672
254	0x3b098040	0.0020980984
255	0x390df600	0.0001353845

bias f4 [128]
0	0xbaa14880	-0.0012304932
1	0x3bd74030	0.006568931
2	0x3c8601f4	0.016358353
3	0xbb12e5a0	-0.00224147
4	0x3d268ca6	0.040661477
5	0xbd78f6da	-0.06078229
6	0x3cf9d680	0.03049779
7	0xbc247060	-0.010036558
8	0x3d2afd1a	0.041745283
9	0x3d0c366e	0.034231596
10	0x3d662660	0.05618894
11	0x3d643b36	0.05572053
12	0x3d22ea6a	0.039774336
13	0xbcaf7270	-0.021416873
14	0xbd0873ac	-0.03331344
15	0x3d701e1c	0.058622465
16	0xbcbe05d8	-0.023196146
17	0x3c92e724	0.017932482
18	0x3d2fe54c	0.042943284
19	0xbd2e75ce	-0.042592816
20	0xbd4b3e16	-0.049619757
21	0xbca57db4	-0.020201541
22	0xbbd3cbb0	-0.0064634904
23	0xbcfc096c	-0.030766211
24	0x3c046a08	0.00808192
25	0xbc4eb920	-0.012617379
26	0xbd0463f6	-0.032321893
27	0xbcf22484	-0.029558428
28	0x3d2c012c	0.041993305
29	0x3b4e64a0	0.0031493083
30	0x3d00ec08	0.031475097
31	0x3d70154a	0.058614053
32	0x3d72410c	0.059144065
33	0xbca134f4	-0.01967857
34	0x3cd90580	0.02649188
35	0x3d082ab2	0.033243842
36	0xbd7857c8	-0.06063059
37	0xba0d1f80	-0.0005383417
38	0xbc47cdb8	-0.012195043
39	0x3bbced00	0.0057655573
40	0xbd12c526	-0.035832547
41	0xbd69275e	-0.05692231
42	0x3d11a0d8	0.035553783
43	0xbbf52590	-0.0074812844
44	0xbd0e951c	-0.03481017
45	0x3cd852c0	0.026406646
46	0xbc127ba0	-0.008940607
47	0xbcd2c8dc	-0.025730543
48	0x3d6eb130	0.058274448
49	0xbd10e038	-0.03537008
50	0x3ca2090c	0.019779705
51	0x3d2357c4	0.03987862
52	0x3d2e6a14	0.042581633
53	0xbc433d50	-0.0119164735
54	0xbce9a3b8	-0.02852045
55	0xbc2fd9b0	-0.010733053
56	0x3d1daaae	0.03849285
57	0xbceceab8	-0.028920516
58	0x3d778fb0	0.060439765
59	0x3c008ab0	0.007845566
60	0x3c0d6308	0.008629568
61	0xbd23f74c	-0.040030763
62	0xbc350ab8	-0.011049919
63	0x3c32e498	0.010918759
64	0xbbcaf6c0	-0.0061939657
65	0xbd3d3e14	-0.04620178
66	0x3a06be00	0.00051400065
67	0xbd2c9dfe	-0.04214286
68	0xbd72feba	-0.059324957
69	0xbcd2f148	-0.025749817
70	0xbd61be26	-0.05511298
71	0xbd3997f6	-0.045310937
72	0x3cbe19f4	0.023205735
73	0x3d01fbf0	0.031734407
74	0x3d09338e	0.033496432
75	0x3d0002c2	0.03125263
76	0x3c35fa50	0.011107042
77	0x3bda3910	0.0066596344
78	0x3ad97900	0.0016591847
79	0x3d2ba0a8	0.04190126
80	0x3c0abb80	0.008467555
81	0x3d738fa6	0.059463166
82	0xbb7694e0	-0.0037625358
83	0xbd751948	-0.059838563
84	0xbcf1261c	-0.029437117
85	0x3c2913c0	0.01031965
86	0xbc1dde60	-0.009635538
87	0xbcf53644	-0.029933102
88	0xbd4aa636	-0.049474917
89	0x3cf7fde0	0.030272424
90	0xbd78b8cc	-0.06072311
91	0xbce3b6c4	-0.02779711
92	0xbd1b0ffc	-0.03785704
93	0x3c1b7a28	0.009489574
94	0xbc3acee0	-0.011401862
95	0xbca07550	-0.019587189
96	0xbd17f5c4	-0.037099615
97	0xbc5dbd98	-0.013533972
98	0xbca2dc60	-0.019880474
99	0x3d058840	0.03260064
100	0xbcbc67f4	-0.022998787
101	0x3d2ee808	0.04270175
102	0x3c660d60	0.014041275
103	0x3d325de4	0.043546572
104	0x3d774022	0.060363896
105	0xbcfaf110	-0.030632526
106	0x3d008d5c	0.03138481
107	0x3d4587d8	0.048225254
108	0xbcc9b83c	-0.024623983
109	0x3cb123fc	0.021623604
110	0xbcb0bb00	-0.021573544
111	0x3cba04f0	0.022707433
112	0xbd4030f2	-0.046921678
113	0x3d59dd34	0.05318947
114	0x3d508114	0.05090435
115	0x3d2857ea	0.041099466
116	0xbc9c8f18	-0.019111201
117	0x3d4e4004	0.05035402
118	0x3ca26970	0.019825667
119	0x3d2f12ae	0.042742424
120	0xbcce11dc	-0.025155
121	0x3d21cfac	0.039504692
122	0x3d6d8a7e	0.057993405
123	0x3c79dd10	0.015250459
124	0xbd0e48ea	-0.034737505
125	0x3d73379a	0.059379198
126	0x3d1e2c5c	0.038616523
127	0xbc819868	-0.015819743

weight f4 [64, 128]
0	0x3d84f3b7	0.064917974
1	0x3d8e5835	0.06950418
2	0xbd34f73d	-0.044181097
3	0xbd32c64e	-0.04364615
4	0x3da08445	0.078377284
5	0x3d7d95be	0.061910383
6	0x3d606332	0.0547821
7	0xbd3a127b	-0.04542778
8	0xbdad2356	-0.084540054
9	0x3c489630	0.012242839
10	0xbd8a52fe	-0.06754111
11	0x3ba15810	0.004923828
12	0xbcdc9706	-0.026927482
13	0xbda8c298	-0.08240241
14	0x3c248d30	0.010043427
15	0x3badbe50	0.005302228
16	0xbd1810ae	-0.037125282
17	0x3d67330a	0.05644516
18	0x3d992c95	0.074792065
19	0xbc4e73b0	-0.012600824
20	0x3d89034b	0.06690081
21	0xbd904144	-0.070436984
22	0xbcea13ce	-0.028573897
23	0x3cf9ba74	0.030484416
24	0x3d33a5ba	0.04385922
25	0x3c2d5910	0.010580316
26	0xbdb22f71	-0.08700455
27	0x39d1b600	0.00039999187
28	0x3b18a400	0.002329111
29	0x3d62edaa	0.055402435
30	0x3d9dd8cd	0.07707367
31	0x3b49afc0	0.0030774921
32	0x3d836ead	0.06417594
33	0xbc2f07d0	-0.010683015
34	0x3cb6bc9c	0.022306733
35	0xbcf61824	-0.030040808
36	0xbd0c24a4	-0.03421463
37	0x3c576390	0.013146296
38	0x3d3ede2a	0.04659859
39	0xbccad8a0	-0.024761498
40	0xbc1d6cd8	-0.00960847
41	0xbca49304	-0.020089634
42	0xbd9c579d	-0.076338984
43	0xbc873108	-0.016502872
44	0xbcc45454	-0.023965992
45	0xbd5849c6	-0.05280473
46	0x3d68b5c2	0.056813963
47	0x3c57a958	0.013162933
48	0x3bf10720	0.0073555857
49	0x3cf3276c	0.029681884
50	0xbb8b7700	-0.0042561293
51	0xbcca92b4	-0.024728157
52	0x3d485ca6	0.04891648
53	0xbdb2a721	-0.087232836
54	0xbc481488	-0.012211926
55	0xbd2f1b85	-0.042750854
56	0x3d59cd82	0.053174503
57	0xba5f2300	-0.00085119903
58	0xbd6bd330	-0.05757445
59	0x3d52e306	0.051486038
60	0x3d7a75be	0.061147444
61	0x3c2fbc50	0.01072605
62	0x3d8a645d	0.06757424
63	0xbd7e15ae	-0.062032394
64	0xbd60166c	-0.054708883
65	0xbd3325c3	-0.043737184
66	0xbc276be0	-0.0102185905
67	0x3cb1a7a0	0.021686375
68	0x3d0fb50e	0.035084777
69	0x3c11d3a8	0.00890056
70	0xbd4a5516	-0.04939755
71	0xbdb2bc59	-0.08727331
72	0xbd2e54f2	-0.04256148
73	0xbc7b3d08	-0.015334375
74	0xbb8ce690	-0.004299946
75	0x3d45999e	0.048242204
76	0x3d414a16	0.047189794
77	0xbb2353e0	-0.002492182
78	0x3d8ccff5	0.06875602
79	0xbdabdff5	-0.08392326
80	0xbd4df603	-0.050283443
81	0xbd87ac57	-0.06624668
82	0xbd053bd3	-0.032527756
83	0xbd92a0fa	-0.0715961
84	0x3dafcbdf	0.08583807
85	0xbda5a604	-0.080883056
86	0x3d2a7e2a	0.041624226
87	0xbb0f1b60	-0.0021836385
88	0x3c056818	0.008142494
89	0x3d92ae17	0.07162111
90	0x3d39cf0e	0.04536348
91	0xbcaf4ca0	-0.021398842
92	0xbd9c532f	-0.076330535
93	0x3d3638ca	0.044487752
94	0x3da05127	0.078279786
95	0x3d93c26b	0.07214817
96	0xbda41646	-0.08012061
97	0x3d396c02	0.04526902
98	0x3d04a914	0.032387808
99	0x3c60e330	0.013726041
100	0xbd212f8c	-0.039351985
101	0xbd564deb	-0.052320402
102	0xbd017c34	-0.03161259
103	0x3c7f6ba8	0.015589632
104	0x3ce24a14	0.027623214
105	0x3c7e0ab0	0.015505478
106	0xbd2a6d3d	-0.041608084
107	0xbda4c9a7	-0.08046275
108	0x3cc98458	0.02459924
109	0xbc88a6a8	-0.01668103
110	0x3d8e35c5	0.069438495
111	0xbccd1110	-0.02503255
112	0xbce4482a	-0.027866442
113	0x3c135790	0.0089930445
114	0xbdb4aafb	-0.088216744
115	0x3cc41d50	0.023939759
116	0xbd879164	-0.06619528
117	0xbd6c26de	-0.057654254
118	0xbcb44bcc	-0.022008799
119	0xbd8f2251	-0.06988967
120	0x3c104258	0.00880488
121	0x3daf4c7d	0.08559511
122	0x3dade413	0.08490767
123	0x3d85e9d3	0.06538739
124	0x3d818045	0.063232936
125	0x3cc20bdc	0.023687296
126	0xbd46cdc1	-0.048536066
127	0x3b660260	0.003509663
128	0x3d1f74c2	0.03892971
129	0xbd59010c	-0.052979514
130	0xbd0c6a6f	-0.03428119
131	0xbda8ab2c	-0.082357734
132	0x3d91ec2f	0.071251266
133	0xbd8974c8	-0.067117274
134	0x3d8d4c4d	0.06899319
135	0xba23b000	-0.00062441826
136	0xbd4fcb58	-0.050731033
137	0xbcf5d634	-0.030009367
138	0xbdb27c14	-0.08715072
139	0xbd00dd23	-0.031460892
140	0xbd957451	-0.07297576
141	0xbd871d5a	-0.06597395
142	0xbccb7e3c	-0.024840467
143	0xbc99bf7c	-0.018768065
144	0xbc9f2b90	-0.019429952
145	0x3d4cbaa6	0.04998269
146	0x3bd93940	0.006629139
147	0xbda8d592	-0.0824386
148	0xbd9e2937	-0.07722705
149	0x3c157b38	0.009123616
150	0x3d965be1	0.07341743
151	0xbc8da618	-0.017291114
152	0x3da3b845	0.07994131
153	0xbd90c3a9	-0.07068569
154	0x3c667220	0.014065295
155	0x3db4dc4b	0.0883108
156	0x3d925a11	0.07146085
157	0xbdacc29b	-0.084355555
158	0xbda7c7d3	-0.0819241
159	0x3c0440d8	0.008072101
160	0xbdb1bdb2	-0.0867876
161	0xbd5d21a2	-0.053987153
162	0x3d752112	0.05984599
163	0xbc156510	-0.009118333
164	0x3cd7f66c	0.02636262
165	0xbd24716d	-0.040147234
166	0x3bec61f0	0.0072138235
167	0xbca8c85c	-0.020603351
168	0xbd0483d3	-0.03235228
169	0xbdb35c26	-0.0875781
170	0x3d07cca6	0.033154152
171	0x3d7aa786	0.06119492
172	0xbdb34c4b	-0.08754786
173	0xbd132b28	-0.03592983
174	0x3d2f9e96	0.04287585
175	0xbcb2202c	-0.021743856
176	0x3c189918	0.009313844
177	0x3d3063d2	0.043063946
178	0x3d60471a	0.054755308
179	0x3d8929b3	0.066974066
180	0x3ca82c64	0.02052898
181	0x3d158db8	0.036512107
182	0x3d187de2	0.037229426
183	0xbc81e708	-0.015857235
184	0xbda6df3a	-0.08148046
185	0x3da3a7db	0.07991
186	0x3c6a6cc8	0.014308162
187	0x3d44f616	0.04808625
188	0x3d7e7156	0.062119804
189	0x3d0d70d0	0.034531415
190	0xbcae0294	-0.021241464
191	0x3d6844d6	0.056706272
192	0x3d198736	0.037482463
193	0x3c0b13a0	0.008488566
194	0xbd7be4de	-0.06149756
195	0x3d31a436	0.043369494
196	0xbd5c8d95	-0.05384596
197	0xbd80de18	-0.06292361
198	0xbd979880	-0.07402134
199	0xbd26e80e	-0.04074865
200	0x3b997750	0.0046834126
201	0x3d69fe06	0.05712702
202	0x3ce57f90	0.028014928
203	0x3d4705ca	0.048589505
204	0xbd5153fd	-0.051105488
205	0x3d98812d	0.07446513
206	0x3d09e1ca	0.033662595
207	0xbc57e4f0	-0.013177142
208	0xbd54fb5b	-0.051997524
209	0x3cff9124	0.031197138
210	0xbab4ff40	-0.0013808981
211	0x3d843031	0.06454504
212	0x3db166c1	0.08662177
213	0x3c1374f8	0.0090000555
214	0xbd57f229	-0.052721176
215	0xbc9a3f00	-0.018828869
216	0xbc097ed0	-0.008392051
217	0x3d71185e	0.05886113
218	0xbd5363da	-0.051608898
219	0x3cf14b38	0.029454812
220	0x3d3c837a	0.046023823
221	0x3ccf9468	0.02533932
222	0x3da4ac7d	0.08040712
223	0x3d4ce8a2	0.050026543
224	0x3db47719	0.088117786
225	0xbd8a7935	-0.067614
226	0x3ca6a3e8	0.020341828
227	0xbd131f8b	-0.035918754
228	0xbd9fb127	-0.07797461
229	0xbc6749a0	-0.014116675
230	0xbd121d3b	-0.035672408
231	0x3c8b312c	0.01699122
232	0xbd325cb4	-0.04354544
233	0x3daa811b	0.08325406
234	0x3cb77fb0	0.022399753
235	0x3d32c9de	0.043649547
236	0x3d636d22	0.055524
237	0x3d1a668a	0.037695445
238	0x3d825293	0.06363406
239	0x3c2e3240	0.010632098
240	0xbc3c3e50	-0.011489466
241	0x3bc68e50	0.0060594454
242	0x3d5c200e	0.053741507
243	0xbd9fad84	-0.07796767
244	0x3d92b269	0.07162935
245	0xbcb7737c	-0.022393934
246	0x3d505286	0.05085995
247	0xbdb078e0	-0.08616805
248	0xbd470620	-0.048589826
249	0x3d6f40be	0.058411352
250	0xbce7df2e	-0.028304663
251	0xbd81d1bc	-0.06338832
252	0x3ca24830	0.019809812
253	0x3d9b16a5	0.075726785
254	0x3d9fbf25	0.0780013
255	0x3d8e0095	0.06933705

bias f4 [64]
0	0x3cae6f44	0.02129329
1	0xbd870094	-0.06591907
2	0x3d9abb75	0.07555286
3	0x3d70a0a6	0.058746956
4	0x3d5c8bea	0.05384437
5	0x3d24f8fa	0.040276505
6	0xbdb151a0	-0.08658147
7	0xbd970efc	-0.07375905
8	0xbdac10ca	-0.0840164
9	0xbd31aa69	-0.043375406
10	0x3dafd4e5	0.08585528
11	0x3d3e2a72	0.046427198
12	0xbc144728	-0.009050168
13	0xbda64938	-0.08119434
14	0xbd659d52	-0.056058235
15	0xbcbb8aa0	-0.02289325
16	0xbb5516c0	-0.003251478
17	0x3ce5a8d4	0.028034605
18	0x3d2acf66	0.041701697
19	0x3d8ad65f	0.06779169
20	0xbc766c30	-0.015040442
21	0x3c11d4b0	0.008900806
22	0x3d726b1e	0.059184186
23	0xbcb11530	-0.021616548
24	0xbd96dab2	-0.073659316
25	0x3da67c69	0.08129198
26	0xbd302159	-0.043000553
27	0x3cc10a18	0.023564383
28	0xbb1cce40	-0.0023926646
29	0x3dac28bf	0.08406209
30	0x3d72514a	0.059159555
31	0x3da090f9	0.07840151
32	0xbd3e8bc3	-0.046520006
33	0xbd5ea16a	-0.054353155
34	0x3c371990	0.011175528
35	0xbc83d200	-0.016091347
36	0xbd906016	-0.07049577
37	0xbcec916c	-0.028877936
38	0x3ccf52f8	0.025308117
39	0x3c69c8f0	0.014269099
40	0x3be7bea0	0.007072285
41	0xbd1cd4c8	-0.03828886
42	0xbd289ab7	-0.041163173
43	0x3b6ac740	0.0035824329
44	0x3bc26eb0	0.005933605
45	0x3d9908eb	0.07472404
46	0xbd3c53ca	-0.045978345
47	0x3d12b9c6	0.0358217
48	0xbd383f9a	-0.04498253
49	0xbd0f4add	-0.034983505
50	0xbcaf3470	-0.021387309
51	0xbba8aa00	-0.0051472187
52	0x3d163926	0.036675595
53	0xbcb37e90	-0.021910936
54	0x3d192d36	0.037396632
55	0xbd9ce5ac	-0.07660994
56	0x3ad6b700	0.0016381443
57	0xbd861fa6	-0.06549005
58	0x3c7c1e60	0.015388101
59	0xbd7faa66	-0.062418364
60	0x3d8639e3	0.0655401
61	0xbda22d51	-0.079188
62	0xbcba8024	-0.02276618
63	0xbda56da6	-0.080775544

weight f4 [10, 64]
0	0xbde766ac	-0.1129888
1	0xbdb05856	-0.08610599
2	0x3db657f2	0.08903493
3	0xbd8c7830	-0.068588614
4	0xbcbca640	-0.023028493
5	0x3d922918	0.07136744
6	0x3d70ec70	0.058819234
7	0x3dbcf1a4	0.09225777
8	0xbdd3f3e6	-0.10349254
9	0xbd659a98	-0.056055635
10	0xbdfd4abc	-0.1236777
11	0xbd6cbfc8	-0.057800084
12	0xbd4f6968	-0.050637633
13	0x3cb474d8	0.022028372
14	0x3df0c5fe	0.11756514
15	0x3defc720	0.11707902
16	0x3d8e2118	0.06939906
17	0x3db24252	0.08704056
18	0xbd7a0a18	-0.061044782
19	0xbd7ba26c	-0.061434194
20	0x3d0bd284	0.03413631
21	0x3d4af3e8	0.049549013
22	0x3c0b6bd0	0.008509591
23	0x3ce8b988	0.02840878
24	0xbda32688	-0.07966334
25	0x3c969668	0.018382266
26	0x3c2963d0	0.010338739
27	0x3de9f8fc	0.11424443
28	0xbdde012c	-0.10840067
29	0x3caa82a8	0.020814255
30	0x3d596ff0	0.053085268
31	0x3d8246d6	0.06361167
32	0xbc8bcb28	-0.017064646
33	0x3df2fe38	0.11864895
34	0x3da69582	0.08133985
35	0x3de92f6c	0.11385998
36	0xbdbcd564	-0.092203885
37	0xbdb6a1d6	-0.089175865
38	0xbdc8f554	-0.098124176
39	0xbd0e649c	-0.034763917
40	0x3d8ec964	0.06972006
41	0xbcdef3d8	-0.027215883
42	0xbdfe3774	-0.124129206
43	0x3c9b0a88	0.01892592
44	0x3d60a1a0	0.054841638
45	0x3d55eb58	0.052226394
46	0xbc85da88	-0.016339555
47	0x3cbb4618	0.022860572
48	0xbd8a7218	-0.06760043
49	0x3dd32744	0.10310224
50	0xbdedaa5c	-0.11604759
51	0xbd106c04	-0.03525926
52	0x3d81f358	0.06345242
53	0x3dc571b2	0.09640826
54	0xbc8b42a8	-0.016999558
55	0xbc808450	-0.015688092
56	0xbc44eea0	-0.012019783
57	0x3c8d18c0	0.017223716
58	0xbd34c098	-0.044128984
59	0xbd6d117c	-0.057878003
60	0xbdddf852	-0.10838379
61	0xbddb37c2	-0.10703994
62	0x3bdd48e0	0.006753072
63	0x3d9c74d2	0.07639469
64	0xbdab2dc2	-0.08358337
65	0x3da55322	0.08072497
66	0xbdd4f460	-0.10398173
67	0x3dc8c512	0.09803213
68	0x3da07c10	0.07836163
69	0x3d085528	0.033284336
70	0xbd85be02	-0.06530382
71	0x3dbb14b0	0.09134805
72	0xbd4a7ee4	-0.04943742
73	0xbd88315e	-0.06650041
74	0x3de416c4	0.11137155
75	0x3cc35478	0.023843989
76	0xbd940a92	-0.072285786
77	0xbdfe8432	-0.12427558
78	0xbd90ef62	-0.07076909
79	0xbd2ce674	-0.042211965
80	0xbc78e5a0	-0.015191466
81	0x3d4b63f0	0.049655855
82	0xbd90e60e	-0.070751294
83	0xbcdb8798	-0.026798055
84	0x3c3accc0	0.011401355
85	0xbcc7b0d0	-0.024376303
86	0x3dbdb014	0.092621
87	0xbdb31c40	-0.08745623
88	0xbdb1c3ca	-0.08679922
89	0xbcbac828	-0.02280052
90	0xbdf7d9fe	-0.121021256
91	0x3d5d0ccc	0.053967282
92	0xbdbf11ba	-0.09329553
93	0xbd045a10	-0.032312453
94	0x3d58439c	0.052798852
95	0x3ddb0444	0.10694173
96	0xbd5379c4	-0.051629797
97	0xbdf98cec	-0.12185082
98	0xbd7f4ed4	-0.062331036
99	0x3d1062c8	0.035250455
100	0x3c1edba0	0.009695917
101	0x3d089ebc	0.033354506
102	0xbd3489cc	-0.044076726
103	0x3cccdc50	0.025007397
104	0x3bc512a0	0.006014183
105	0x3cef7898	0.029232308
106	0x3ccfda38	0.02537261
107	0x3d796edc	0.06089674
108	0xbdaec12c	-0.08532938
109	0x3d7657d4	0.060142353
110	0xbd714d10	-0.058911383
111	0x3cc02758	0.02345626
112	0xbdf881c6	-0.12134127
113	0x3d806234	0.06268731
114	0xbd961200	-0.07327652
115	0x3dfe51ba	0.12417932
116	0xbd0da43c	-0.034580454
117	0x3da53066	0.08065872
118	0xbcc4e2e8	-0.024033979
119	0xbd76b040	-0.06022668
120	0xbd9d0d90	-0.076686025
121	0x3de2b630	0.11069906
122	0x3d8c7088	0.06857401
123	0xbd4ff850	-0.05077392
124	0xbdffc7ac	-0.12489256
125	0xbc9696c8	-0.018382445
126	0x3b464e80	0.0030259192
127	0x3dead7be	0.11466931
128	0x3d629f2c	0.05532758
129	0xbdb625e8	-0.08893949
130	0xbcd9e048	-0.026596203
131	0x3dbcb122	0.09213473
132	0x3d995888	0.07487589
133	0xbdb9f532	-0.090799704
134	0x3c3bf4b0	0.011471912
135	0x3db4a294	0.08820072
136	0xbd3a9a30	-0.0455572
137	0x3c412670	0.011788949
138	0xbdecdc0e	-0.115654096
139	0x3cebdb38	0.028791055
140	0xbd98d3f8	-0.07462305
141	0x3de60cf0	0.112329364
142	0xbb83f1a0	-0.0040266067
143	0xbd1302d8	-0.035891384
144	0x3de273e0	0.11057258
145	0x3d0b11e8	0.033952624
146	0x3db9f80a	0.09080513
147	0x3b985180	0.0046483874
148	0x3dd733b4	0.105079085
149	0x3d93a36c	0.072089046
150	0x3da8de6e	0.0824555
151	0xbdadc25a	-0.08484335
152	0xbd69f7ac	-0.057120964
153	0xbc9bed18	-0.019033954
154	0x3d704b6c	0.058665678
155	0x3d5af340	0.053454638
156	0xbdbcb5a8	-0.09214336
157	0x3db27f94	0.0871574
158	0x3dc9d726	0.098554894
159	0xbcbab090	-0.02278927
160	0xbdb3c21c	-0.08777258
161	0x3d454678	0.048162907
162	0xbda20856	-0.07911746
163	0xbd35a654	-0.044348076
164	0x3dde31ac	0.10849318
165	0xbdd1438e	-0.10217963
166	0x3cbe1fd0	0.023208529
167	0x3ded324a	0.115818575
168	0xbd2da644	-0.04239489
169	0x3ca4a788	0.020099416
170	0xbd6392a8	-0.055559784
171	0xbdfc5d0e	-0.12322436
172	0xbd22ab64	-0.039714232
173	0x3dba5494	0.09098163
174	0x3dc0d656	0.09415881
175	0x3d4560a4	0.048187867
176	0xbd2977c0	-0.041373968
177	0x3c891b38	0.016736612
178	0xbdce178a	-0.100630835
179	0x3d681850	0.05666381
180	0xbd9b7678	-0.075909555
181	0xbd2fd004	-0.04292299
182	0x3df6e510	0.12055409
183	0x3d45c958	0.04828772
184	0x3dec79a2	0.11546637
185	0xbce438c8	-0.027859107
186	0x3dbd3a5a	0.09239645
187	0x3de5aace	0.11214219
188	0xbdc9e4bc	-0.09858081
189	0x3dd3d284	0.10342887
190	0xbd66b3d0	-0.056323826
191	0x3d556720	0.0521003
192	0xbd601364	-0.054705992
193	0xbda28158	-0.079348266
194	0x3dc88450	0.097908616
195	0xbcfdee98	-0.03099756
196	0x3df75180	0.12076092
197	0x3c72af10	0.014812246
198	0x3bdd3be0	0.0067515224
199	0xbdbf8892	-0.093522206
200	0xbde9041e	-0.113777384
201	0xbd72c194	-0.05926664
202	0xbde6d896	-0.11271779
203	0x3d8576ea	0.06516822
204	0x3df3fdde	0.11913656
205	0xbc718b90	-0.014742747
206	0xbddbb756	-0.10728328
207	0xbdcb7454	-0.09934297
208	0x3da04744	0.07826093
209	0xbdf13ca2	-0.11779143
210	0xbd319868	-0.043358237
211	0xbd26fd44	-0.040768877
212	0x3d678554	0.056523636
213	0x3dd0f970	0.102038264
214	0xbdff1138	-0.12454456
215	0x3df0784e	0.11741696
216	0x3dea7cd8	0.11449593
217	0xbb9c2f20	-0.00476636
218	0xbd57663c	-0.052587733
219	0xbd120d94	-0.03565748
220	0x3df3fdde	0.11913656
221	0xbdcf3404	-0.10117343
222	0x3d8fdc96	0.07024495
223	0xbb924980	-0.0044643283
224	0x3db884b0	0.09009683
225	0x3c8a7d90	0.016905576
226	0x3d78290c	0.06058602
227	0x3de0e31c	0.10980818
228	0x3d95bf38	0.07311863
229	0xbdeb3636	-0.11484949
230	0xbdac2f80	-0.084074974
231	0xbdeec50c	-0.116586775
232	0xbca4aa10	-0.020100623
233	0x3d500670	0.05078739
234	0x3db809f2	0.08986272
235	0x3d2cb8b4	0.042168334
236	0xbd7affb8	-0.06127903
237	0x3d1a5ac4	0.037684217
238	0x3dd787dc	0.1052396
239	0x3a84f080	0.0010142475
240	0x3d5f8410	0.054569304
241	0x3dde61b0	0.10858476
242	0x3d8a430c	0.067510694
243	0x3dd0f446	0.102028415
244	0x3cb13308	0.021630779
245	0x3dd9d43c	0.106361836
246	0xbd9d0f06	-0.07668881
247	0xbd93bd76	-0.07213871
248	0x3dcb694c	0.09932193
249	0xbd355e74	-0.04427953
250	0xbcb350b8	-0.021889076
251	0xbd55aa4c	-0.05216436
252	0x3da75690	0.08170807
253	0xbdf5d492	-0.12003435
254	0xbd8eabca	-0.0696636
255	0xbdd084f8	-0.10181612

bias f4 [10]
0	0x3d68061c	0.05664645
1	0x3d80de2e	0.062923774
2	0xbcc22a30	-0.023701757
3	0x3d50a7c0	0.05094123
4	0xbd98ddca	-0.07464178
5	0x3d4446d4	0.04791911
6	0xbd6a9b40	-0.057276964
7	0x3cfcb490	0.030847818
8	0x3d1b89c4	0.03797318
9	0x3d03e610	0.032201827
