artifacts/trained_model.pth (torch, 186119 bytes, 10 tensors)

weight f4 [8, 1, 5, 5]
0.1862136 0.2455846 0.05533276 -0.06880547 -0.05516632 0.15543514 0.18754266 0.007510796
0.12455737 -0.1432534 0.28270766 -0.02530818 0.06351831 0.10651059 -0.2733277 -0.09520913
-0.107922666 -0.042902455 -0.027982092 -0.37955195 -0.06827478 0.14293984 0.096439175 -0.21494712
-0.16812335 -0.093022436 -0.18310863 0.22170505 0.1461559 -0.04590412 -0.14990754 -0.09668696
0.3426488 -0.07231446 0.19548957 0.10410431 0.028960159 0.2302094 0.13521868 -0.191635
0.17343494 -0.2008309 0.33590406 -0.11570108 -0.08111506 0.20005493 -0.09942735 0.17646314
0.19056673 0.02976084 0.11524823 0.013253092 -0.22237918 0.021973578 0.20539284 -0.18818994
-0.2799163 -0.13939567 0.008466838 0.30760106 0.037209366 -0.23721276 0.021294577 0.18095757
0.26014185 -0.097511396 -0.34041592 -0.17880687 0.2937558 0.29986405 -0.06338453 -0.16141763
0.022408191 0.2509258 -0.026841551 -0.003693235 0.1329086 0.24239288 0.19871677 0.07728575
0.035295866 -0.06287122 -0.079593636 -0.04057727 0.057065126 -0.20979838 0.029963596 0.20155236
-0.0700791 0.1928179 -0.21529865 0.22081834 0.21018162 0.2424904 0.07730303 0.17216404
0.098091796 0.17593248 -0.023823395 -0.14305668 -0.16979152 -0.3639266 -0.30909345 -0.19664907
-0.3651158 0.12339705 -0.23662733 0.07550277 0.051073987 -0.34800312 0.05754222 0.22867203
-0.023834899 -0.060796015 -0.05504911 0.13206792 -0.085613385 0.12238547 0.0574032 0.1717692
0.2013716 -0.08180842 0.07511993 0.16556129 0.19897002 0.05083444 0.0019267133 0.19429404
0.017985154 0.069750085 0.29148608 0.10027984 -0.0075401147 -0.11649944 0.073635444 0.0018733478
-0.0657106 0.042428955 -0.23562694 -0.0066759856 0.22205026 -0.0077206558 -0.04094642 -0.15466203
-0.06491175 0.2400141 0.08140556 0.21758777 -0.14018784 0.099986784 -0.21179006 -0.0037070774
0.0043040155 0.3330339 0.2905906 0.0005881426 0.25006714 0.016631516 0.3449204 0.18077992
0.018696833 -0.0070529617 0.026629368 0.024047276 0.0852631 0.049026944 0.004092536 0.19518843
-0.063077725 -0.03189299 -0.07492471 -0.05186585 0.05510665 -0.13583948 0.024078337 0.14896677
0.07031005 -0.08211868 0.19502322 0.058755845 0.18244638 0.16854347 0.17694011 -0.064826556
-0.16342671 0.035996493 0.20450878 0.16067187 0.17589289 -0.19330822 0.20010306 0.09390921
-0.12149868 0.25232485 -0.0924619 0.2838596 0.15852398 -0.104049385 0.27556783 0.05897819
00000000: c7ae 3e3e 887a 7b3e 9ba4 623d e2e9 8cbd
00000010: 14f6 61bd 642a 1f3e 2f0b 403e 201d f63b
00000020: ef17 ff3d 05b1 12be 0fbf 903e 1a53 cfbc
00000030: e315 823d 3922 da3d 9cf1 8bbe 01fd c2bd
00000040: 8f06 ddbd 7cba 2fbd b33a e5bc a254 c2be
00000050: a6d3 8bbd d25e 123e e781 c53d 191b 5cbe
00000060: 8728 2cbe 8c82 bebd d480 3bbe a606 633e
00000070: e4a9 153e f505 3cbd 5d81 19be d003 c6bd
00000080: aa6f af3e 9b19 94bd 6b2e 483e a434 d53d
00000090: db3d ed3c 03bc 6b3e c476 0a3e f73b 44be
000000a0: ee98 313e 9ea6 4dbe 9efb ab3e b0f4 ecbd
000000b0: a71f a6bd 33db 4c3e 91a0 cbbd c1b2 343e
000000c0: ed23 433e 01cd f33c 4407 ec3d 7f23 593c
000000d0: 5eb7 63be ef01 b43c 8052 523e ddb4 40be
000000e0: 3051 8fbe bdbd 0ebe 7eb8 0a3c e37d 9d3e
000000f0: d968 183d e7e7 72be f771 ae3c f14c 393e
00000100: 5031 853e 0eb4 c7bd ff4a aebe 2619 37be
00000110: 2967 963e c887 993e c0cf 81bd aa4a 25be
00000120: 6291 b73c 5979 803e d0e2 dbbc 340a 72bb
00000130: 3119 083e d735 783e 697c 4b3e fe47 9e3d
00000140: 6692 103d a0c2 80bd fd01 a3bd 5a34 26bd
00000150: 1fbd 693d 63d5 56be 3776 f53c be63 4e3e
00000160: a285 8fbd 0e72 453e 4077 5cbe 341e 623e
00000170: da39 573e 674f 783e 0d51 9e3d c54b 303e
00000180: 5ae4 c83d a527 343e 4829 c3bc 737d 12be
00000190: d4dd 2dbe 9654 babe 7f41 9ebe 605e 49be
000001a0: 75f0 babe 98b7 fc3d 6f4e 72be 32a1 9a3d
000001b0: f532 513d 772d b2be 64b1 6b3d 0029 6a3e
000001c0: 6841 c3bc 3e05 79bd 2d7b 61bd d03c 073e
000001d0: 1256 afbd 3ca5 fa3d 9e1f 6b3d 44e4 2f3e
000001e0: 5b34 4e3e 2c8b a7bd 7ad8 993d e688 293e
000001f0: ccbe 4b3e c637 503d c589 fc3a 04f5 463e
00000200: 9a55 933c 22d9 8e3d aa3d 953e 845f cd3d
00000210: 1113 f7bb 4297 eebd 2ece 963d 1f8b f53a
00000220: 4793 86bd fcc9 2d3d 3048 71be 3ac2 dabb
00000230: 2561 633e 8efd fcbb 6fb7 27bd b95f 1ebe
00000240: 74f0 84bd 42c6 753e f5b7 a63d 54cf 5e3e
00000250: 678d 0fbe dfc5 cc3d 7edf 58be 70f2 72bb
00000260: b308 8d3b 6b83 aa3e 4bc8 943e 952d 1a3a
00000270: cd08 803e d13e 883c 6899 b03e 5f1e 393e
00000280: 1a2a 993c 881c e7bb d525 da3c cbfe c43c
00000290: 6c9e ae3d 7ad0 483d ae1a 863b 7adf 473e
000002a0: e52e 81bd 39a2 02bd 2072 99bd 4971 54bd
000002b0: 83b7 613d 8119 0bbe ef3f c53c bf8a 183e
000002c0: b7fe 8f3d d72d a8bd 2bb4 473e f8a9 703d
000002d0: 39d3 3a3e a996 2c3e ca2f 353e c9c3 84bd
000002e0: 5559 27be 0f71 133d c06a 513e 2b87 243e
000002f0: 441d 343e 97f2 45be d1e7 4c3e 7953 c03d
00000300: 4dd4 f8bd b930 813e aa5c bdbd 0c56 913e
00000310: 1c54 223e d817 d5bd 3a17 8d3e 1d93 713d

bias f4 [8]
0.0728176 -0.0010803966 -0.06933156 0.0511257 0.2041581 -0.00025233976 -0.00022581767 -0.00043046343
00000000: 6521 953d 189c 8dba b4fd 8dbd 2f69 513d
00000010: d20e 513e 784c 84b9 78c9 6cb9 d3af e1b9

weight f4 [16, 8, 5, 5]
-0.05810539 0.14234942 0.0690158 0.009768292 0.017266823 -0.09383754 0.08887837 0.17472361
0.06913546 0.11374322 0.08549285 0.10304864 0.15108044 0.12633169 0.1455216 0.0346761
0.10005896 0.11215077 0.083158985 -0.06115558 -0.06302319 0.09751106 0.14189745 -0.00978015
0.06944888 0.017810926 -0.04341322 -0.0879694 -0.09573472 -0.04084821 0.033777483 0.11588675
0.00048086268 -0.030450478 0.037054185 0.02033498 -0.011481302 -0.02161723 -0.034621593 -0.09280825
-0.020421077 0.088041134 -0.05086247 -0.11188525 -0.13892701 0.12447628 -0.0037938303 0.06704714
0.012928501 -0.063119456 0.08144236 0.1413459 0.10692109 0.27910382 0.16240236 0.13829656
0.01236203 -0.020852033 0.17160195 0.18296981 0.21004198 -0.056326397 -0.03333708 0.15111431
0.21911694 0.16895865 0.0890118 -0.07845618 0.12726821 0.085374154 0.12930755 -0.04537989
-0.05134252 0.103138015 0.05155248 0.032790113 0.012966024 -0.011383451 -0.07169965 -0.01289433
-0.020455666 0.051270064 0.012914944 -0.074280985 0.06622753 0.051047202 -0.002981202 0.0049163215
-0.014285601 -0.051899064 0.08496304 -0.044230852 -0.0880034 -0.08608411 -0.06151926 -0.01948686
-0.02171726 -0.0806127 0.011082765 -0.03211644 0.08446932 0.22260141 0.18835151 0.21229006
0.14781037 0.105714604 0.18770628 0.0746686 0.07580291 -0.029370816 0.030652504 0.054916695
0.17843746 0.15696427 0.118572064 -0.0015118471 0.057324365 0.12793796 0.2601767 0.22312683
-0.015468706 -0.090772 -0.017866774 0.1690295 0.14703393 -0.04180857 0.02436965 -0.0005558493
-0.088116065 0.03845632 -0.015092823 0.09568925 0.02784389 -0.043415632 0.02600981 -0.031636223
0.021247152 -0.016229253 -0.056333918 -0.08283752 0.06431401 0.032238275 0.06912128 0.025150267
-0.1364359 0.069108285 -0.0075992127 0.06921433 -0.082371145 -0.055186734 -0.010497959 -0.04518722
-0.02745474 -0.06397294 0.0053796563 0.09781805 -0.009674978 0.026948905 0.056103908 0.05913523
0.04275241 0.07204185 -0.012157705 -0.068738416 0.052294623 0.027573008 0.07759037 -0.079479694
-0.10292304 -0.09992598 0.043200348 0.077141784 0.017350767 -0.108657315 -0.0439392 0.06696062
0.018958582 0.032717086 -0.10631415 -0.014018782 0.0003913631 0.037525285 0.05473651 -0.11255577
-0.07407673 0.07579855 0.06986066 -0.07449253 -0.010543211 -0.13453788 0.043696657 0.047563296
0.031656146 -0.05277044 -0.1552995 -0.01883977 0.06791127 -0.019873178 -0.076925226 -0.08975626
-0.13774545 0.07227275 0.14373359 0.019574702 -0.05955285 -0.2253263 -0.056458414 0.1442458
-0.02011444 -0.17130148 -0.1920406 -0.04859332 0.089619696 -0.0058384715 -0.14527275 -0.10134203
0.03176007 0.0068580103 -0.0150092 -0.112257585 0.07102446 0.09529303 0.095918596 -0.067192964
-0.118035816 -0.20255789 -0.048716895 0.05705698 0.025947347 -0.064052716 -0.042151373 -0.06484811
0.0093893595 -0.010350987 0.04357552 -0.05780746 0.028104415 0.029327324 -0.052814286 0.021994993
-0.08946435 -0.005705887 0.037437383 0.017508436 0.06705716 -0.069388814 -0.034597117 0.0655533
-0.045260116 0.0108004 0.06192911 0.10515307 0.09629482 -0.22956258 -0.08776374 0.092570074
00000000: ebff 6dbd 0cc4 113e 2858 8d3d 300b 203c
00000010: 2773 8d3c e52d c0bd dd05 b63d bfea 323e
00000020: e496 8d3d 35f2 e83d e016 af3d 2a0b d33d
00000030: d5b4 1a3e 185d 013e 9d03 153e 8708 0e3d
00000040: b6eb cc3d 4eaf e53d 424f aa3d 467e 7abd
00000050: 4d12 81bd e1b3 c73d 914d 113e ec3c 20bc
00000060: 373b 8e3d 38e8 913c 10d2 31bd 4d29 b4bd
00000070: 9110 c4bd 7450 27bd 425a 0a3d 0856 ed3d
00000080: 4c1c fc39 4873 f9bc 21c6 173d 8b95 a63c
00000090: 121c 3cbc 9e16 b1bc 5fcf 0dbd 4012 bebd
000000a0: 1a4a a7bc e94e b43d 2a55 50bd 1824 e5bd
000000b0: e242 0ebe 6bed fe3d e9a1 78bb 0350 893d
000000c0: 10d2 533c c644 81bd 41cb a63d fbbc 103e
000000d0: 72f9 da3d b2e6 8e3e ce4c 263e 9d9d 0d3e
000000e0: 1d8a 4a3c e2d1 aabc 6cb8 2f3e 705c 3b3e
000000f0: 3f15 573e 82b6 66bd 768c 08bd b6bd 1a3e
00000100: 3160 603e 7f03 2d3e d24b b63d a2ad a0bd
00000110: 9952 023e a5d8 ae3d 3369 043e 43e0 39bd
00000120: 894c 52bd 063a d33d b128 533d ed4e 063d
00000130: 726f 543c a781 3abc 44d7 92bd bd42 53bc
00000140: a492 a7bc 8f00 523d 3499 533c a120 98bd
00000150: 4da2 873d df16 513d 4560 43bb 1819 a13b
00000160: 270e 6abc 1d94 54bd 1a01 ae3d 692b 35bd
00000170: 203b b4bd de4c b0bd 9ffb 7bbd e8a2 9fbc
00000180: 65e8 b1bc 4518 a5bd 7c94 353c 878c 03bd
00000190: 40fe ac3d a0f1 633e 38df 403e 9162 593e
000001a0: 9a5b 173e e680 d83d 1336 403e daeb 983d
000001b0: 8e3e 9b3d 119b f0bc f61a fb3c 54f0 603d
000001c0: 4fb8 363e 3ebb 203e e9d5 f23d 2c29 c6ba
000001d0: f4cc 6a3d 2b02 033e e135 853e 5c7b 643e
000001e0: 7570 7dbc ace6 b9bd 575d 92bc 1216 2d3e
000001f0: 1090 163e 773f 2bbd dca2 c73c 6ab6 11ba
00000200: 3276 b4bd 6084 1d3d e347 77bc baf8 c33d
00000210: df18 e43c 97d4 31bd 8612 d53c fc94 01bd
00000220: 820e ae3c 36f3 84bc 65be 66bd b8a6 a9bd
00000230: 10b7 833d 480c 043d 758f 8d3d ef07 ce3c
00000240: dab5 0bbe a588 8d3d d102 f9bb 3ec0 8d3d
00000250: 34b2 a8bd 7c0b 62bd a2ff 2bbc 3c16 39bd
00000260: c3e8 e0bc 3f04 83bd d447 b03b d454 c83d
00000270: cd83 1ebc f3c3 dc3c 36cd 653d c837 723d
00000280: 271d 2f3d ad8a 933d 1c31 47bc bac6 8cbd
00000290: e332 563d cae0 e13c b3e7 9e3d 40c6 a2bd
000002a0: 51c9 d2bd fea5 ccbd d9f2 303d 83fc 9d3d
000002b0: 3223 8e3c ba87 debd 97f9 33bd a622 893d
000002c0: 074f 9b3c 5a02 063d 3cbb d9bd 09af 65bc
000002d0: de2f cd39 1db4 193d 6433 603d a483 e6bd
000002e0: 8ab5 97bd 453c 9b3d 1b13 8f3d 8a8f 98bd
000002f0: 6fbd 2cbc 4cc4 09be 44fb 323d bbd1 423d
00000300: e0a9 013d d125 58bd d506 1fbe dd55 9abc
00000310: 1015 8b3d 13cd a2bc f98a 9dbd 21d2 b7bd
00000320: 250d 0dbe bc03 943d e62e 133e 205b a03c
00000330: b0ed 73bd f0bb 66be f040 67bd 2cb5 133e
00000340: 0ac7 a4bc a869 2fbe 4ba6 44be ca09 47bd
00000350: 888a b73d a650 bfbb 61c2 14be 698c cfbd
00000360: d916 023d 29b9 e03b 26e9 75bc 4ee7 e5bd
00000370: 4675 913d fe28 c33d f870 c43d 779c 89bd
00000380: c3bc f1bd 566b 4fbe 5e8b 47bd 94b4 693d
00000390: 888f d43c 122e 83bd eba6 2cbd 16cf 84bd
000003a0: d4d5 193c 3097 29bc 3f7c 323d 84c7 6cbd
000003b0: 3b3b e63c db3f f03c cb53 58bd d82e b43c
000003c0: 1639 b7bd 73f8 babb f157 193d da6d 8f3c
000003d0: 4455 893d b91b 8ebd b5b5 0dbd cf40 863d
000003e0: ac62 39bd 29f4 303c 61a9 7d3d 7e5a d73d
000003f0: 3836 c53d 7412 6bbe 7abd b3bd 6195 bd3d

bias f4 [16]
0.03360175 0.031678356 0.17726639 0.047290314 0.00057887676 0.08475081 -0.052896354 0.01941292
0.11594016 0.023468575 0.031608038 0.051828753 -0.0777829 0.05389373 0.09167158 0.084471904
00000000: fda1 093d 2ac1 013d 5285 353e 7db3 413d
00000010: c3bf 173a d591 ad3d d9a9 58bd d807 9f3c
00000020: 0972 ed3d 2b41 c03c 6e77 013d 634a 543d
00000030: a44c 9fbd acbf 5c3d 4fbe bb3d 9bff ac3d

weight f4 [128, 256]
0.009030575 -0.009081473 0.03544139 -0.0025439963 0.028302288 -0.051129874 0.04992893 -0.012151981
0.0050216326 -0.01830803 -0.03277612 0.0046904366 -0.059571307 -0.0015737531 -0.066539325 -0.07534278
-0.053347673 -0.019287366 -0.014056474 -0.049208436 -0.021244118 -0.027306404 -0.064314 0.0013684386
-0.012944832 0.02664984 -0.03732972 -0.057310592 0.015268364 -0.055899985 -0.04368141 -0.009388714
-0.015680278 -0.06021584 0.044241473 0.048083033 0.0004027267 -0.016184667 -0.006948014 0.03501776
-0.017109925 0.025892394 0.049983468 0.0062446604 0.051746853 -0.0020279349 -0.0278674 0.03685627
0.027697468 -0.049966216 0.021040766 -0.03582624 -0.04554784 -0.054536056 0.050093494 -0.01605855
0.05524924 0.007018476 -0.016051333 -0.048040405 -0.041990727 -0.010938491 0.007990137 -0.06637475
0.022654012 -0.06161765 -0.018242165 -0.033888318 -0.019842375 -0.028734636 -0.044183753 -0.025008379
0.006387216 -0.015947077 0.04149512 -0.048923966 -0.012792205 -0.040025447 -0.053363908 0.02808473
-0.04956094 -0.003597854 0.02806998 -0.048483014 -0.07788441 -0.01509519 -0.0632896 -0.07031744
-0.06941246 0.030162321 0.02255732 -0.0051779044 -0.023432743 -0.057285 -0.04934944 -0.009315982
0.01840125 0.040462658 0.015497647 0.009732686 -0.028996222 -0.062350042 0.059173547 -0.044330366
0.016753733 -0.025498018 0.004579641 0.024544418 -0.011638634 -0.00449156 0.03465139 0.0024521872
0.045615092 -0.02535514 -0.017587712 0.043197922 0.027951498 0.0018233848 -0.0005772343 0.017561978
-0.05258219 -0.014156607 -0.035927407 -0.07201595 0.04666824 0.038089126 0.047576044 -0.055098243
0.022283914 -0.023648057 -0.033125747 -0.021128055 -0.0651318 0.023088537 -0.030170321 -0.027820196
0.051124398 -0.0091317175 -0.05085057 -0.014911261 0.040381335 0.017425537 0.005220826 0.028771503
0.037268832 -0.030309048 0.04382077 0.04613811 0.061223477 -0.019751163 -0.009057 -0.00015327153
-0.050717898 0.045097854 0.011168709 0.039167 0.030538792 0.0060459916 -0.03559078 -0.009563875
0.049957495 0.02840916 -0.025525708 -0.02694303 -0.057069097 -0.038324993 -0.010994619 -0.03569548
-0.05883541 -0.046047766 -0.011839764 -0.017309628 0.03769288 0.024748674 -0.0019452682 -0.058130782
-0.010076951 -0.052055016 0.026833953 -0.023591407 0.0051390193 -0.058693297 0.0002393892 0.026049417
0.038282163 -0.05084371 -0.060247004 -0.026992334 0.026115227 -0.057404175 0.017622523 0.0040362375
0.009161146 -0.015492321 0.027441869 0.028457109 -0.025820209 0.047633108 0.0041166684 0.028734872
-0.048867952 0.04133531 0.011340294 -0.037600234 0.009445403 -0.057269275 0.02885049 -0.011756986
-0.06408791 -0.045965664 -0.048522413 -0.015060229 -0.0039031403 -0.003616006 0.035741717 -0.040580444
-0.054837137 -0.07315639 0.005388804 0.016322883 -0.072904624 -0.0652258 -0.0669565 -0.012844603
-0.04059286 0.045709193 -0.056283038 -0.04652231 0.059974916 0.009738714 -0.03928734 0.021275135
0.011003624 -0.040151622 -0.036214802 0.017530262 -0.06015157 -0.019791827 -0.028580716 -0.03924194
0.05066237 -0.06117877 -0.051911063 0.015738502 -0.058422778 -0.018970676 -0.017760504 -0.047711577
0.051326785 0.00670495 0.04551517 0.011627927 0.029573275 -0.022446746 -0.010984151 -0.011040146
00000000: faf4 133c 75ca 14bc fe2a 113d 2db9 26bb
00000010: 33da e73c 8f6d 51bd 4782 4c3d 1a19 47bc
00000020: 828c a43b b9fa 95bc 4140 06bd 3cb2 993b
00000030: 0b01 74bd 6446 ceba c545 88bd 514d 9abd
00000040: 1783 5abd 8a00 9ebc 204d 66bc c98e 49bd
00000050: 2508 aebc aeb1 dfbc 0fb7 83bd 2e5d b33a
00000060: 9016 54bc c450 da3c 0ce7 18bd 83be 6abd
00000070: 2928 7a3c 62f7 64bd 47eb 32bd 1fd3 19bc
00000080: ed73 80bc e2a4 76bd 8c36 353d b7f2 443d
00000090: 1025 d339 b595 84bc 2aac e3bb c86e 0f3d
000000a0: 1d2a 8cbc 491c d43c 77bb 4c3d 02a0 cc3b
000000b0: 82f4 533d 1ae7 04bb 2c4a e4bc 9af6 163d
000000c0: cde5 e23c 60a9 4cbd af5d ac3c 89be 12bd
000000d0: 5f90 3abd 3361 5fbd d62e 4d3d 388d 83bc
000000e0: 074d 623d 3efb e53b 167e 83bc 04c6 44bd
000000f0: 78fe 2bbd 5b37 33bc 10e9 023c 7cef 87bd
00000100: e894 b93c ca62 7cbd 9870 95bc 7ace 0abd
00000110: 7a8c a2bc e664 ebbc 06fa 34bd 5fde ccbc
00000120: da4b d13b 72a3 82bc c9f6 293d 7f64 48bd
00000130: 6696 51bc b9f1 23bd 1d94 5abd f311 e63c
00000140: 6a00 4bbd f9c9 6bbb 04f3 e53c 2096 46bd
00000150: dd81 9fbd d151 77bc fa9d 81bd 9702 90bd
00000160: 1f28 8ebd f916 f73c 21ca b83c 69ab a9bb
00000170: 06f6 bfbc ada3 6abd a322 4abd 10a2 18bc
00000180: 38be 963c 2cbc 253d d8e9 7d3c d875 1f3c
00000190: 7c89 edbc c262 7fbd f65f 723d c293 35bd
000001a0: 203f 893c 38e1 d0bc d010 963b 6011 c93c
000001b0: f8af 3ebc f02d 93bb 9eee 0d3d e0b4 203b
000001c0: e4d6 3a3d 95b5 cfbc 1b14 90bc 4ef0 303d
000001d0: 8afa e43c a4fe ee3a 8a51 17ba 23de 8f3c
000001e0: 6c60 57bd 1df1 67bc 9e28 13bd 197d 93bd
000001f0: 3227 3f3d 5803 1c3d 19df 423d b2ae 61bd
00000200: c18c b63c 92b9 c1bc ddae 07bd be14 adbc
00000210: d263 85bd 2c24 bd3c c027 f7bc 2ee7 e3bc
00000220: d167 513d 339d 15bc b048 50bd 5d4e 74bc
00000230: e666 253d 00c0 8e3c 7613 ab3b 37b2 eb3c
00000240: 34a7 183d ae4a f8bc 687d 333d 51fb 3c3d
00000250: 78c5 7a3d 31cd a1bc d063 14bc 83b7 20b9
00000260: 92bd 4fbd 87b8 383d f6fc 363c 946d 203d
00000270: 7d2c fa3c 741d c63b a3c7 11bd cdb1 1cbc
00000280: 3ba0 4c3d 54ba e83c 4a1b d1bc a1b7 dcbc
00000290: 49c1 69bd abfa 1cbd c622 34bc 6c35 12bd
000002a0: 66fd 70bd 959c 3cbd 92fb 41bc eccc 8dbc
000002b0: d963 1a3d bbbd ca3c 5ff8 feba 8b1a 6ebd
000002c0: cc19 25bc a437 55bd e1d2 db3c c442 c1bc
000002d0: 3865 a83b 6268 70bd 8d04 7b39 9665 d53c
000002e0: c2cd 1c3d 7e41 50bd 90c5 76bd 071f ddbc
000002f0: 9aef d53c a420 6bbd 1c5d 903c 6a42 843b
00000300: a218 163c 81d3 7dbc c5cd e03c e21e e93c
00000310: e784 d3bc ef1a 433d 1ee5 863b 6565 eb3c
00000320: c329 48bd 374f 293d a4cc 393c b402 1abd
00000330: e4c0 1a3c 3093 6abd dd57 ec3c 60a0 40bc
00000340: 8640 83bd 7e46 3cbd 70bf 46bd 2ebf 76bc
00000350: d4cb 7fbb 84fa 6cbb e865 123d ae37 26bd
00000360: e89c 60bd 04d3 95bd 9094 b03b 91b7 853c
00000370: 054f 95bd 1b95 85bd 7d20 89bd 2b72 52bc
00000380: b344 26bd 9039 3b3d 0b89 66bd 2d8e 3ebd
00000390: 42a8 753d 218f 1f3c c3eb 20bd 3149 ae3c
000003a0: 8b48 343c 0776 24bd f955 14bd a09b 8f3c
000003b0: 7e61 76bd 7822 a2bc 1b22 eabc 28bc 20bd
000003c0: 5883 4f3d 9796 7abd b2a0 54bd 08ee 803c
000003d0: b94c 6fbd 6468 9bbc 7a7e 91bc 376d 43bd
000003e0: 093c 523d 32b5 db3b 1d6e 3a3d 1083 3e3c
000003f0: a743 f23c 3de2 b7bc def6 33bc bbe1 34bc

bias f4 [128]
-0.01138751 -0.0021964225 0.009479317 -0.012813118 0.13376346 -0.07020795 0.021931807 -0.016041158
0.113816485 0.020166233 0.102349915 -0.011259781 0.061030425 -0.038316425 -0.06391799 0.10347444
-0.04144673 0.15751335 0.010492634 -0.03959182 -0.058115892 -0.026343636 -0.016029231 -0.057412393
0.0034725033 -0.022516968 0.08518324 0.002482437 -0.010320984 -0.06351811 -0.027951939 0.08869631
0.103389196 -0.03605358 -0.02039367 0.053333275 0.013472261 -0.017518392 -0.044713322 -0.010083836
0.027826373 -0.096461855 0.016397646 0.0155269755 -0.04422971 0.093829446 -0.020239035 -0.09614727
0.04870124 -0.04311638 0.035080414 0.054604333 0.035752244 0.06056772 0.015937634 -0.018810239
0.17173932 -0.038222503 0.119439326 0.04854666 0.0053717084 -0.05753838 -0.008723993 -0.046425495
-0.029381264 0.02822808 0.089387916 -0.048856635 -0.05203413 -0.03018385 0.04270836 -0.056418456
0.0147306 0.10382256 0.06562518 0.10193788 -0.025645237 -0.016519533 0.10198706 0.046757523
0.0027423364 0.15769136 -0.018075332 -0.0662918 0.005573766 -0.038490474 0.03245896 -0.03775714
0.05499221 0.12398655 -0.067564875 0.012609275 -0.021524189 -0.00969788 -0.008703824 0.00045604253
0.012851437 0.018037565 -0.026106928 0.013516356 -0.041523214 0.04821551 0.02111116 0.047503743
0.05772236 -0.04036559 0.055322956 0.011737714 -0.036315255 -0.026498422 -0.035655007 0.12590022
-0.050301608 0.11996369 0.07135454 0.036748346 0.002665964 0.056112755 0.04536952 0.03821332
0.058425575 -0.044103917 0.18638748 0.07479083 0.02795404 -0.051898696 0.030721838 -0.04040037
00000000: ae92 3abc dbf1 0fbb 234f 1b3c 1dee 51bc
00000010: 4af9 083e 30c9 8fbd 55aa b33c bf68 83bc
00000020: 9e18 e93d a833 a53c d59c d13d f27a 38bc
00000030: 0afb 793d aff1 1cbd 6fe7 82bd 68ea d33d
00000040: 0cc4 29bd 2e4b 213e 4ce9 2b3c 082b 22bd
00000050: ee0a 6ebd 9cce d7bc bc4f 83bc 4229 6bbd
00000060: f092 633b 8175 b8bc 8d74 ae3d 62b0 223b
00000070: 5819 29bc c815 82bd 77fb e4bc 69a6 b53d
00000080: b7bd d33d ebac 13bd a010 a7bc fe73 5a3d
00000090: c2ba 5c3c bb82 8fbc 5125 37bd ac36 25bc
000000a0: 22f4 e33c cb8d c5bd 5b54 863c db64 7e3c
000000b0: 362a 35bd a729 c03d 55cc a5bc dce8 c4bd
000000c0: f47a 473d cd9a 30bd 7bb0 0f3d cba8 5f3d
000000d0: f270 123d dc15 783d a48f 823c ee17 9abc
000000e0: 6fdc 2f3e 338f 1cbd 9b9c f43d ddd8 463d
000000f0: 2805 b03b 5dad 6bbd 14ef 0ebc a928 3ebd
00000100: fab0 f0bc 933e e73c 0311 b73d e51d 48bd
00000110: bd21 55bd 1f44 f7bc f6ee 2e3d 0a17 67bd
00000120: 9d58 713c eca0 d43d 7f66 863d cfc4 d03d
00000130: f615 d2bc f953 87bc 97de d03d d184 3f3d
00000140: c5b8 333b d879 213e b812 94bc ffc3 87bd
00000150: 23a4 b63b 30a8 1dbd b0f3 043d 3ba7 1abd
00000160: 833f 613d a9ec fd3d 745f 8abd 2297 4e3c
00000170: 7f53 b0bc dbe3 1ebc 7c9a 0ebc fe18 ef39
00000180: d58e 523c 84c3 933c 32de d5bc b573 5d3c
00000190: 3f14 2abd a07d 453d 50f1 ac3c 4993 423d
000001a0: 486e 6c3d 6456 25bd 539a 623d 8a4f 403c
000001b0: 4ebf 14bd 3813 d9bc fc0a 12bd fdeb 003e
000001c0: 0f09 4ebd 86af f53d 5422 923d 6f85 163d
000001d0: 74b7 2e3b 7dd6 653d 64d5 393d 9285 1c3d
000001e0: a84f 6f3d 4fa6 34bd 5cdc 3e3e ef2b 993d
000001f0: dfff e43c ba93 54bd 5dac fb3c dc7a 25bd

weight f4 [64, 128]
0.06633057 0.1002937 -0.044181097 -0.052591395 0.11007883 0.054182287 0.049225118 -0.04542778
-0.11526419 0.054242305 -0.04623626 0.077028066 -0.036268663 -0.080198735 -0.024466384 0.0072814184
-0.026263114 0.04178661 0.112153985 0.03462075 0.082464695 -0.07913919 -0.033800453 0.03233189
0.050921056 0.018069187 -0.12502094 -0.019512879 0.064866886 0.08699577 0.14224279 0.05911463
0.106269635 -0.01483584 0.078278 -0.009787403 -0.023247687 -0.048185866 0.09277847 0.02694172
0.0028977774 -0.013300105 -0.0381477 0.001921505 -0.041097194 -0.07317568 0.05370348 -0.007251272
-0.0023022592 0.029585188 -0.06621067 -0.06553656 0.03752148 -0.17459723 0.048578933 -0.0508267
0.064587675 -0.024213681 -0.059604943 0.06319231 0.091986366 -0.0011246421 0.0911413 -0.10228375
-0.07408667 0.00517502 -0.0301943 0.06823474 0.033238616 0.05638495 -0.011411579 -0.08727331
-0.04256148 -0.13167793 0.021914091 -0.036416307 0.05017834 -0.03385582 0.050040253 -0.08381649
-0.06604771 -0.07115437 0.006032776 -0.074897714 0.15351881 -0.11524398 0.023031276 0.012981928
0.05042307 0.11826314 0.052200362 0.018717872 -0.067408875 0.0629163 0.09823577 0.11199394
-0.09713452 0.0511828 0.018404702 -0.07430521 -0.05578241 0.026599811 -0.029244049 0.040783778
0.039505072 0.005795272 -0.011719078 -0.11605428 0.013738133 0.012664552 0.10601655 -0.01136554
-0.08624682 0.0076906104 -0.10795262 0.015831918 -0.13661142 -0.067615554 -0.009374848 -0.07693192
-0.14937456 0.13228294 0.11011731 0.11310257 0.06501085 0.087580256 -0.057643645 0.011610151
0.03892971 -0.07307547 -0.03428119 -0.082357734 0.048109528 -0.0722324 0.06899319 -0.00062441826
-0.072499156 -0.04556723 -0.09235997 -0.052359503 -0.09612927 -0.071761854 -0.024840467 -0.03489464
0.013591172 0.03916456 -0.012296065 -0.103479065 -0.07722705 0.023427492 0.07341743 -0.017291114
0.07994131 -0.07068569 0.016209392 0.092505686 0.048494004 -0.10587025 -0.10508974 -0.0047092834
-0.095537394 -0.053987153 0.040950373 -0.03202315 0.013699837 -0.05570978 -0.015867481 -0.030761948
-0.056769792 -0.08213395 0.010190423 0.06119492 -0.08754786 -0.059686366 0.04287585 0.0028916218
0.009313844 0.043063946 0.033564806 0.049427066 0.02052898 0.024814468 0.018787991 -0.015857235
-0.09076868 0.062157385 -0.0012298401 0.025389904 0.059313316 0.034531415 -0.021241464 0.043707434
0.037482463 -0.014997292 -0.072442174 0.019698245 -0.051081203 -0.07212769 -0.09774957 -0.04074865
0.0046834126 0.049768392 0.0050197267 0.04323253 -0.060165215 0.07446513 0.025452912 -0.035774518
-0.051997524 0.0059620026 -0.023448251 0.06454504 0.07801469 0.0090000555 -0.07720887 -0.018828869
-0.031339332 0.034098413 -0.051608898 0.016782302 0.023161838 0.02533932 0.08040712 0.026639128
0.08127272 -0.08162634 0.020341828 -0.041328523 -0.07797461 -0.022578284 -0.050573617 -0.0035347329
-0.063201964 0.08325406 -0.0020800969 0.043649547 0.055524 0.01590706 0.041457556 -0.0123529835
-0.011489466 -0.0042276895 0.028817581 -0.08859811 0.06505583 -0.042223714 0.030304763 -0.091530375
-0.054431524 0.03504251 -0.051035464 -0.08645467 6.8706936e-06 0.051969428 0.058127295 0.06933705
00000000: 52d8 873d c966 cd3d 3df7 34bd 136a 57bd
00000010: 0271 e13d 3fee 5d3d 47a0 493d 7b12 3abd
00000020: a20f ecbd 2e2d 5e3d 3c62 3dbd e4c0 9d3d
00000030: 738e 14bd 3c3f a4bd ba6d c8bc f798 ee3b
00000040: be25 d7bc 7028 2b3d fdb0 e53d 7dce 0d3d
00000050: 40e3 a83d ba13 a2bd 5872 0abd 726e 043d
00000060: 9992 503d d505 943c 7d05 00be 79d9 9fbc
00000070: eed8 843d d72a b23d 18a8 113e 2f22 723d
00000080: e5a3 d93d 0612 73bc 3750 a03d 585b 20bc
00000090: ef71 bebc 8b5e 45bd a302 be3d e2b4 dc3c
000000a0: a3e8 3d3b afe8 59bc c340 1cbd 02db fb3a
000000b0: 8855 28bd 22dd 95bd 2ef8 5b3d 149c edbb
000000c0: 80e1 16bb a35c f23c 7699 87bd 0838 86bd
000000d0: 20b0 193d 9ec9 32be b4fa 463d a82f 50bd
000000e0: 8b46 843d c55b c6bc 5024 74bd f86a 813d
000000f0: 5963 bc3d ba68 93ba 4aa8 ba3d 257a d1bd
00000100: c1ba 97bd 3793 a93b 095a f7bc a8be 8b3d
00000110: 3725 083d e8f3 663d a2f7 3abc 59bc b2bd
00000120: f254 2ebd 94d6 06be 2e85 b33c 4429 15bd
00000130: ce87 4d3d 66ac 0abd 02f7 4c3d fba7 abbd
00000140: 0644 87bd 62b9 91bd 98ae c53b f963 99bd
00000150: 0934 1d3e 0905 ecbd 16ac bc3c 27b2 543c
00000160: 6c88 4e3d f233 f23d 0cd0 553d 3956 993c
00000170: aa0d 8abd 43da 803d d62f c93d 145d e53d
00000180: 77ee c6bd 0ea5 513d 75c5 963c 542d 98bd
00000190: 197c 64bd d9e7 d93c 3791 efbc e40c 273d
000001a0: 12d0 213d 44e6 bd3b 6001 40bc dead edbd
000001b0: e815 613c fb7e 4f3c 341f d93d 8836 3abc
000001c0: 2ca2 b0bd 8401 fc3b 4316 ddbd f0b1 813c
000001d0: dde3 0bbe 067a 8abd f698 19bc 7c8e 9dbd
000001e0: a5f5 18be 2e75 073e 2f85 e13d 52a2 e73d
000001f0: 6924 853d 475d b33d be1b 6cbd 8138 3e3c
00000200: c274 1f3d 98a8 95bd 6f6a 0cbd 2cab a8bd
00000210: 7f0e 453d 95ee 93bd 4d4c 8d3d 00b0 23ba
00000220: 707a 94bd b4a4 3abd 3927 bdbd eb76 56bd
00000230: 6cdf c4bd e1f7 92bd 3c7e cbbc afed 0ebd
00000240: 82ad 5e3c 056b 203d 6f75 49bc d5ec d3bd
00000250: 3729 9ebd 03eb bf3c e15b 963d 18a6 8dbc
00000260: 45b8 a33d a9c3 90bd 8fc9 843c 9f73 bd3d
00000270: a6a1 463d 80d2 d8bd 4a39 d7bd 5550 9abb
00000280: 1ca9 c3bd a221 5dbd 94bb 273d b52a 03bd
00000290: 4875 603c f02f 64bd 85fc 81bc 7b00 fcbc
000002a0: 7187 68bd d835 a8bd bbf5 263c 86a7 7a3d
000002b0: 4b4c b3bd b179 74bd 969e 2f3d 5d81 3d3b
000002c0: 1899 183c d263 303d 407b 093d 0974 4a3d
000002d0: 642c a83c b647 cb3c 46e9 993c 08e7 81bc
000002e0: eee4 b9bd be98 7e3d 9632 a1ba 7dfe cf3c
000002f0: 85f2 723d d070 0d3d 9402 aebc 9106 333d
00000300: 3687 193d 34b7 75bc 905c 94bd 375e a13c
00000310: 863a 51bd afb7 93bd ed30 c8bd 0ee8 26bd
00000320: 5077 993b f1d9 4b3d 857c a43b 9814 313d
00000330: cd6f 76bd 2d81 983d a082 d03c 4d88 12bd
00000340: 5bfb 54bd e75c c33b 8c16 c0bc 3130 843d
00000350: 2ac6 9f3d f874 133c af1f 9ebd 003f 9abc
00000360: ac5d 00bd c7aa 0b3d da63 53bd 0a7b 893c
00000370: e5bd bd3c 6894 cf3c 7dac a43d 4d3a da3c
00000380: 5072 a63d b62b a7bd e8a3 a63c 1948 29bd
00000390: 27b1 9fbd 18f6 b8bc 4826 4fbd faa6 67bb
000003a0: 0870 81bd 1b81 aa3d 3c52 08bb dec9 323d
000003b0: 226d 633d 864f 823c 66cf 293d 2b64 4abc
000003c0: 503e 3cbc 6e88 8abb d912 ec3c ed72 b5bd
000003d0: fe3b 853d c6f2 2cbd b241 f83c 4774 bbbd
000003e0: 97f3 5ebd bc88 0f3d 900a 51bd 250f b1bd
000003f0: cf8a e636 e5dd 543d e316 6e3d 9500 8e3d

bias f4 [64]
0.039644293 -0.07977886 0.10518742 0.12656733 0.020964082 0.0026634212 0.026337469 -0.027609196
-0.047132492 -0.061823938 0.06113128 -0.019562254 0.0025319217 -0.10341303 -0.08781467 -0.039878286
0.06983209 0.1113795 0.13735743 0.017782785 -0.039045725 -0.04053492 0.08074657 -0.0464179
-0.07301226 -0.026195938 0.017433047 0.09244247 0.036048252 0.053569198 0.18422173 0.08538561
-0.020997278 -0.06607715 -0.00026938735 -0.046354033 -0.0042115697 -0.030782502 0.049815267 0.06360671
0.08230109 -0.057494354 -0.061135314 0.07620375 0.09089643 0.07523694 -0.026427204 0.09485116
-0.020210978 -0.0009837843 -0.06654637 0.02163188 0.051791254 -0.04079705 0.051175006 -0.094677456
0.1043367 -0.08816369 0.062471043 -0.07334555 0.07310063 -0.06375269 -0.02276618 -0.043103475
00000000: 0e62 223d 1963 a3bd 816c d73d de9a 013e
00000010: debc ab3c cb8c 2e3b adc1 d73c ae2c e2bc
00000020: 000e 41bd 193b 7dbd cb64 7a3d 0541 a0bc
00000030: 99ee 253b 36ca d3bd 2dd8 b3bd 6a57 23bd
00000040: 2004 8f3d ef1a e43d 6da7 0c3e 34ad 913c
00000050: 69ee 1fbd f207 26bd 755e a53d b220 3ebd
00000060: 7487 95bd dd98 d6bc c0cf 8e3c 7a52 bd3d
00000070: 55a7 133d 606b 5b3d 9fa4 3c3e a7de ae3d
00000080: 7c02 acbc 7553 87bd 8f3c 8db9 badd 3dbd
00000090: 3501 8abb 962b fcbc 180b 4c3d 3c44 823d
000000a0: 798d a83d 337f 6bbd 0669 7abd b610 9c3d
000000b0: e827 ba3d d315 9a3d dd7d d8bc 5341 c23d
000000c0: 7e91 a5bc 53f2 80ba 7749 88bd 5735 b13c
000000d0: 1123 543d cf1a 27bd e29c 513d 41e6 c1bd
000000e0: 7bae d53d 2a8f b4bd a3e1 7f3d 3136 96bd
000000f0: c8b5 953d c590 82bd 2480 babc 458d 30bd

weight f4 [10, 64]
-0.11155388 -0.08010641 0.12411509 -0.07772458 -0.14470007 -0.043289296 0.17113832 0.09890783
-0.1332543 -0.04425146 -0.08954083 -0.15305808 -0.059310738 -0.007706055 0.122600935 0.0870271
0.040934782 0.105110526 0.041152403 -0.090602234 -0.0038720102 0.05286365 0.016846815 0.0064936024
-0.04399118 0.041951958 0.027529055 0.14141607 -0.1017472 0.04524588 0.07833241 0.09243597
0.0561598 0.089671 0.029191844 0.1186301 -0.23478039 -0.15469532 -0.16869827 -0.060220025
0.08360249 -0.018074924 -0.10416104 0.06407818 0.1256455 -0.12281628 0.029973358 -0.02650258
-0.05610162 0.13537908 -0.15338562 -0.017324999 0.08021691 0.08346196 -0.01756224 -0.046391014
0.01271533 -0.07386744 -0.019323433 -0.07244435 -0.122558124 -0.27559495 0.006753072 0.07241655
-0.19053903 0.057517674 -0.068214275 0.17024039 0.09917495 -0.09208677 -0.20391445 0.12698211
-0.084244445 -0.05380174 0.07724996 -0.0010142471 -0.119888976 -0.11118336 -0.1400333 -0.039726254
-0.13493247 0.07856033 -0.12914358 -0.056363154 0.072071575 -0.05443595 -0.018586345 -0.0874725
-0.10292714 -0.0888927 -0.17302254 0.08863771 -0.19208467 -0.015616201 0.10832104 0.15500882
-0.09794402 -0.13504478 -0.089736916 -0.09289424 0.032546166 0.11433234 -0.037733223 0.051675543
-0.008055716 0.062172037 0.006855595 0.08786977 -0.11506791 0.17972192 -0.20329706 0.06657744
-0.20018172 0.12312698 -0.024307791 0.18409643 0.026264058 0.07504867 -0.075000376 -0.044745732
-0.07889903 0.037478704 0.0040096315 -0.06571604 -0.218835 0.21619424 0.0030259192 0.1481686
0.10243537 -0.10392351 -0.044834193 0.065038264 -0.022823172 -0.11269396 0.0353474 0.10317622
-0.06205245 -0.012010033 -0.191397 -0.0419411 -0.17946339 0.056756437 -0.0037521846 -0.036880445
0.043089297 0.052564923 0.108048484 -0.105398774 0.052653376 0.09830304 -0.082455985 -0.105835095
-0.026950486 -0.0030041405 -0.022570675 0.059291743 -0.06994805 0.11601543 0.105016105 -0.03060125
-0.115234904 0.019264916 -0.19410549 -0.0149364555 0.12941179 -0.17024858 -0.01994289 0.06523021
-0.06308382 0.03766688 -0.0754786 -0.41335076 -0.010400523 0.015160877 0.09081348 -0.017349396
-0.0072917314 -0.10639425 -0.1268471 0.04245645 -0.13461326 -0.06005127 0.15349478 0.018536275
0.1517021 -0.24348079 -0.015215996 0.09699654 -0.18038425 -0.120525725 -0.056323826 0.1033644
-0.11092904 -0.08447994 0.12539145 -0.014283037 0.09603702 -0.08870041 -0.041151725 -0.108464494
-0.22554597 -0.05274439 -0.21285576 0.064940885 0.1179138 -0.020307312 -0.20574921 -0.12171513
-0.030184776 -0.15699142 -0.032253705 -0.10846059 0.027862059 0.10513168 -0.24464972 0.115484595
0.12632105 -0.025081573 -0.12597686 -0.02515615 0.08802187 -0.13432634 0.091630675 -0.0061836704
0.13150518 0.03516474 0.031234145 -0.030083837 0.09335806 -0.14716244 -0.17821737 -0.12958747
-0.061308213 0.055823468 0.07013885 0.03511359 -0.07281969 0.08936341 0.108747736 -0.020564925
0.08864169 0.1365016 0.077544965 0.125609 0.0503502 0.1018712 -0.12705967 -0.087616555
0.10670334 -0.11528922 -0.08398804 -0.0666348 0.0648673 -0.22221316 -0.0696636 -0.13905437
00000000: 5c76 e4bd d40e a4bd 0d30 fe3d 112e 9fbd
00000010: 412c 14be 1e50 31bd e23e 2f3e 3090 ca3d
00000020: d173 08be 0541 35bd 2f61 b7bd 42bb 1cbe
00000030: d1ef 72bd 1383 fcbb 3316 fb3d 443b b23d
00000040: 3bab 273d 3044 d73d 6c8f 283d aa8d b9bd
00000050: 8dc1 7dbb 8e87 583d 5502 8a3c 49c8 d43b
00000060: 1830 34bd d1d5 2b3d 9d84 e13c 60cf 103e
00000070: d660 d0bd be53 393d be6c a03d 124f bd3d
00000080: d207 663d 6ea5 b73d bc23 ef3c 56f4 f23d
00000090: 456a 70be 7368 1ebe 3dbf 2cbe 46a9 76bd
000000a0: c837 ab3d dd11 94bc 6252 d5bd 6c3b 833d
000000b0: 37a9 003e 1a87 fbbd b08a f53c f01b d9bc
000000c0: d0ca 65bd d0a0 0a3e 1f11 1dbe 28ed 8dbc
000000d0: c348 a43d 1bee aa3d b0de 8fbc 8104 3ebd
000000e0: f653 503c d047 97bd 2d4c 9ebc b45d 94bd
000000f0: c1ff fabd c81a 8dbe e048 dd3b 214f 943d
00000100: aa1c 43be a797 6b3d edb3 8bbd 7f53 2e3e
00000110: 3c1c cb3d fd97 bcbd f3ce 50be 9907 023e
00000120: 5a88 acbd 375f 5cbd 3a35 9e3d 7cf0 84ba
00000130: 5a88 f5bd 1ab4 e3bd e464 0fbe ffb7 22bd
00000140: bd2b 0abe 3de4 a03d 373e 04be 0ddd 66bd
00000150: 439a 933d 3bf8 5ebd 6442 98bc c824 b3bd
00000160: 77cb d2bd 600d b6bd d22c 31be b087 b53d
00000170: d8b1 44be 18db 7fbc 6cd7 dd3d a2ba 1e3e
00000180: e096 c8bd 2e49 0abe fdc7 b7bd 563f bebd
00000190: 214f 053d 1327 ea3d 278e 1abd bca9 533d
000001a0: 1ffc 03bc 1ba8 7e3d e6a4 e03b 11f5 b33d
000001b0: b9a8 ebbd 0609 383e 1b2d 50be c159 883d
000001c0: 70fc 4cbe 002a fc3d 2221 c7bc c683 3c3e
000001d0: b927 d73c 1eb3 993d cc99 99bd 4d47 37bd
000001e0: d195 a1bd 4583 193d 3a63 833b 2296 86bd
000001f0: 4816 60be 0662 5d3e 804e 463b 82b9 173e
00000200: a3c9 d13d d9d5 d4bd 0fa4 37bd c832 853d
00000210: a9f7 babc 17cc e6bd 6fc8 103d 0e4e d33d
00000220: b62a 7ebd bbc5 44bc 93fd 43be 6eca 2bbd
00000230: 40c5 37be 7079 683d 36e7 75bb f30f 17bd
00000240: 677e 303d 514e 573d 8648 dd3d 50db d7bd
00000250: 11ab 573d 1b53 c93d afde a8bd 12c0 d8bd
00000260: 44c7 dcbc 1de1 44bb 23e6 b8bc e6db 723d
00000270: ec40 8fbd 7f99 ed3d af12 d73d 79af fabc
00000280: 4700 ecbd 75d1 9d3c 97c3 46be 09b8 74bc
00000290: 8684 043e a555 2ebe 465f a3bc 6b97 853d
000002a0: 1732 81bd 9648 1a3d 8694 9abd b6a2 d3be
000002b0: f566 2abc 5465 783c 6bfc b93d 5220 8ebc
000002c0: 7aef eebb 3be5 d9bd 35e4 01be d1e6 2d3d
000002d0: 0fd8 09be 52f8 75bd bc2d 1d3e 63d9 973c
000002e0: cc57 1b3e 0753 79be 834c 79bc 1fa6 c63d
000002f0: a6b6 38be 31d6 f6bd d0b3 66bd b7b0 d33d
00000300: c42e e3bd d203 adbd 9e66 003e 6603 6abc
00000310: 0faf c43d 90a8 b5bd b68e 28bd a222 debd
00000320: 86f5 66be 800a 58bd dcf6 59be baff 843d
00000330: ca7c f13d 855b a6bc ecaf 52be c845 f9bd
00000340: 1046 f7bc 5cc2 20be 761c 04bd 9620 debd
00000350: f93e e43c 474f d73d 7585 7abe 3083 ec3d
00000360: 4e5a 013e df77 cdbc 1400 01be 4514 cebc
00000370: cf44 b43d d88c 09be dda8 bb3d 63a0 cabb
00000380: 4ba9 063e e708 103d c0de ff3c 6172 f6bc
00000390: 8332 bf3d c0b1 16be 9d7e 36be 94b2 04be
000003a0: 521e 7bbd 26a7 643d f5a4 8f3d 45d3 0f3d
000003b0: 7d22 95bd 2a04 b73d 22b7 de3d c677 a8bc
000003c0: c689 b53d 13c7 0b3e e5cf 9e3d a59f 003e
000003d0: 033c 4e3d d9a1 d03d ee1b 02be 4f70 b3bd
000003e0: 4887 da3d c11c ecbd ec01 acbd d377 88bd
000003f0: 26d9 843d d98b 63be caab 8ebd 4564 0ebe

bias f4 [10]
0.09284347 0.06949336 0.001992852 0.031206148 -0.15546158 -0.0019147089 0.011033215 0.07861494
-0.0005634295 -0.0015924298
00000000: b824 be3d 8952 8e3d 829a 023b 09a4 ff3c
00000010: 5231 1fbe f8f6 faba a8c4 343c df00 a13d
00000020: 1db3 13ba 14b9 d0ba
